lightning_logs/version_59/checkpoints/epoch=6607.ckpt (torch_old, 800524 bytes, 102 tensors)

exp_avg f8 [16, 2, 3]
-3.397767099203248e-05 -2.9874674190176135e-05 -3.071881646058025e-05 8.618706454079132e-06 8.585413674316253e-06 8.563344113610856e-06 3.0256700509367533e-05 2.7479073152455314e-05
2.5571546776962282e-05 -1.4759975017828469e-05 -1.4387352428043544e-05 -1.4030699046061386e-05 1.5923404690315252e-07 7.573493115573728e-06 -6.505124760463619e-06 -1.0225132818602153e-06
-9.916012651992628e-07 -9.67494207236536e-07 3.9271769048882686e-05 3.735659670122035e-05 3.888565443185699e-05 -1.3660259051859936e-05 -1.3292857049605785e-05 -1.2960139223948457e-05
-3.225311342736056e-06 -9.784153814891945e-06 -9.379221060047581e-06 -7.414671966804418e-06 -6.425208447028385e-06 -5.441376973908115e-06 3.203843598055263e-05 1.975297678398935e-05
1.8546582734989117e-05 -1.190614274925137e-05 -1.144329694502035e-05 -1.0979618792905484e-05 -7.641435551799424e-05 -7.441294968605406e-05 -6.851080585582595e-05 -9.522965478641425e-06
-8.512496171654494e-06 -7.46180520798453e-06 -2.4513879090051555e-06 1.938206850107546e-06 -3.6378732644541666e-08 -3.630709917816931e-07 -3.4458435236034374e-07 -3.1809058320068276e-07
8.336485970265936e-06 1.8810124863296217e-05 1.8740475153892452e-05 7.73419352667758e-06 6.316539482108676e-06 4.890503534740856e-06 -1.8260475180903805e-05 -1.0209267384280141e-05
-1.3987996808653411e-05 1.4465502418947181e-05 1.3710586707830025e-05 1.2951073793837257e-05 -1.5163864065047708e-05 -1.5364971017078393e-05 -2.0072676904558182e-06 4.223211610687193e-07
4.471739869961253e-07 4.816794019946805e-07 1.0087052315340999e-05 1.4823533984345987e-05 1.2836206578635639e-05 2.772375224577681e-05 2.552760872490675e-05 2.3348756969746546e-05
-2.369522584910877e-06 2.0238844856543817e-05 2.023895541612936e-05 2.236913132054948e-05 2.085302078567199e-05 1.9306974454254383e-05 -8.758449291034462e-06 -6.713043541121074e-06
-9.323706449005821e-06 -7.79441085372363e-06 -7.621197795561933e-06 -7.426026816750179e-06 -1.5780628691199586e-05 -2.416609480011995e-05 -2.0763543915163896e-05 -2.3537118492646927e-05
-2.0921193092828055e-05 -1.8311352354527867e-05 -3.783754613075844e-05 -4.385025677223302e-05 -3.688473965950204e-05 -5.8060420328476275e-06 -5.320069298891691e-06 -4.805747044200725e-06
00000000: 4151 b9e2 67d0 01bf 35b1 5efa 6b53 ffbe
00000010: e190 1e7f 021b 00bf 5003 cefe 2113 e23e
00000020: c9f1 4045 4201 e23e d434 9e0d 69f5 e13e
00000030: c572 73a0 f8b9 ff3e 65e2 3987 5bd0 fc3e
00000040: b903 5850 4fd0 fa3e 8b94 0c85 33f4 eebe
00000050: df91 33a9 262c eebe e42d e797 ac6c edbe
00000060: 241c 267d 3d5f 853e 70c3 94ef f9c3 df3e
00000070: e2e3 1c14 d348 dbbe 3bac 323e a927 b1be
00000080: 6539 071f e5a2 b0be e418 7321 5b3b b0be
00000090: 375d b3b5 f796 043f 12b9 93e3 ea95 033f
000000a0: 3caf 9ce9 2463 043f 517b 4fb5 cba5 ecbe
000000b0: 7896 8e5c 8ce0 ebbe bd49 c7f8 eb2d ebbe
000000c0: 4566 8aa9 4d0e cbbe 16c4 65dc d384 e4be
000000d0: 911c ae53 6eab e3be 7019 cb82 7119 dfbe
000000e0: 5a42 7fd9 03f3 dabe c94c 4050 a2d2 d6be
000000f0: 71c6 2b47 20cc 003f 1ed5 833a 66b6 f43e
00000100: 064b f675 8f72 f33e 95e5 a1cc 0ff8 e8be
00000110: 98f7 a2c1 92ff e7be 68cc 0051 a306 e7be
00000120: 1c26 afa1 1408 14bf c369 bfbd c481 13bf
00000130: 9cc9 aaae aef5 11bf ab24 ca68 9af8 e3be
00000140: d94f b590 1cda e1be edc2 c865 0d4c dfbe
00000150: 0d4a 4cc1 5090 c4be 514a ff7b 4442 c03e
00000160: 6c78 90dd da87 63be 3003 d31b 835d 98be
00000170: dcd0 3802 ea1f 97be 0a40 fe2d c158 95be
00000180: bf89 4ae8 9d7b e13e 2322 1df0 4db9 f33e
00000190: ebd0 77a5 9ba6 f33e 4e83 d976 4338 e03e
000001a0: 2895 e726 557e da3e 20da 2260 2383 d43e
000001b0: 9a53 a44c c225 f3be bd23 6706 0f69 e5be
000001c0: ee38 7ea4 bf55 edbe 2365 8f83 1b56 ee3e
000001d0: 0fd4 48b0 d0c0 ec3e 50f2 4f07 0e29 eb3e
000001e0: 01b1 919b 09cd efbe 9e12 b3c4 801c f0be
000001f0: 4328 3615 93d6 c0be 24aa e71b 6c57 9c3e
00000200: 6327 4dfe 6302 9e3e abba ea34 9829 a03e
00000210: d945 f1e9 7127 e53e cf6d 60ff 5216 ef3e
00000220: d1c9 78cc 62eb ea3e 7464 5bbf 0912 fd3e
00000230: 5d26 f5e9 83c4 fa3e cb83 845c a27b f83e
00000240: d49a 33d1 82e0 c3be 0b57 0ad4 d238 f53e
00000250: c272 066d da38 f53e 0dd4 d7ff aa74 f73e
00000260: cee6 3fad b0dd f53e ecd4 8d2e ad3e f43e
00000270: 73e4 c61a 285e e2be 5742 995b 1328 dcbe
00000280: b5e8 f274 a08d e3be f9cd b0ab 9758 e0be
00000290: 99d6 00e6 32f7 dfbe a509 53b5 a225 dfbe
000002a0: ce5b d58b 148c f0be fed1 b063 0957 f9be
000002b0: 1a39 7fdf abc5 f5be 23dc 7877 32ae f8be
000002c0: b201 2971 fdef f5be 6680 588d 6a33 f3be
000002d0: 808c 7f2f 78d6 03bf bdc3 9d59 7bfd 06bf
000002e0: 7718 2501 9656 03bf 2285 7eae 305a d8be
000002f0: 9c4b 8083 6150 d6be 3bff 55b0 2128 d4be

exp_avg_sq f8 [16, 2, 3]
6.573656720988249e-07 6.930302103651592e-07 7.711439973293074e-07 7.021821285163068e-08 7.261685683467848e-08 7.511929755444792e-08 2.7772785385079275e-06 2.830110441581583e-06
2.7791027849602285e-06 1.882174548174541e-07 1.9266208562202973e-07 1.973485657230936e-07 1.4040808498487976e-07 1.7989576143921307e-07 2.142353017001976e-07 1.1726161823389202e-09
1.2198706136658495e-09 1.278562591375851e-09 2.5642538267257588e-06 2.5876387243953974e-06 2.4723193926962747e-06 1.6971012145642282e-07 1.7326396742961545e-07 1.771806328092192e-07
2.0767142956209737e-06 2.2844515287515836e-06 2.6738026314183183e-06 3.9620223658794354e-07 4.234448753534651e-07 4.5199970678021006e-07 2.2045410471271915e-06 2.479512126360885e-06
2.348085440517348e-06 8.05132110750882e-08 7.920954527453243e-08 7.792239116297052e-08 7.353840882417948e-06 6.01328750136335e-06 5.2746415918213205e-06 4.2019443170367634e-08
4.150408010503383e-08 4.170294098986792e-08 6.180587134490487e-09 9.175859871948068e-09 9.02864355301039e-09 1.1306006140395479e-10 1.2212004928585078e-10 1.3117970235717354e-10
4.683441579355116e-06 5.035917542111311e-06 5.434201272826949e-06 6.709100282169155e-07 7.183796227794967e-07 7.686811426755558e-07 3.1517989736170034e-06 2.9567849628572224e-06
2.5226846774537532e-06 6.497043130379224e-08 6.208652755844746e-08 5.937421414875566e-08 2.2874322141088327e-07 1.694386862549454e-07 1.534546474059537e-07 1.4442317550260144e-09
1.406181864700029e-09 1.3459056010219651e-09 6.262778590668422e-06 5.702697498191177e-06 6.275951628075746e-06 8.829593671501253e-07 9.291548672140577e-07 9.790763754616762e-07
6.1625938910864525e-06 6.418382432005449e-06 5.7353295545650745e-06 1.664398778692954e-07 1.655636569221089e-07 1.6572853796260313e-07 2.2825004750058806e-07 2.6250381326131156e-07
2.499412069913159e-07 7.787457753096185e-09 7.46809911758622e-09 7.1554118890387336e-09 1.0314056082915286e-05 1.051293782926268e-05 1.2128153341003426e-05 2.2259649709626633e-06
2.37691216831791e-06 2.5367533525428797e-06 1.856522770038051e-06 1.8289491904430225e-06 1.5089640592218462e-06 1.2704967106962738e-08 1.2898907540613813e-08 1.3212847419930265e-08
00000000: 3022 7d66 ba0e a63e 5e06 a58c 1541 a73e
00000010: 31ae 6095 13e0 a93e b5b4 3bdd 5bd9 723e
00000020: 53a8 6141 317e 733e c97b 79a8 282a 743e
00000030: eb06 f905 294c c73e 4bfe 50ab 9dbd c73e
00000040: 672b d6e9 1350 c73e 89b4 b03d 1a43 893e
00000050: 9805 82a0 d1db 893e 74bc 8657 d87c 8a3e
00000060: e7dd 9b93 62d8 823e 2b72 17da 2b25 883e
00000070: fc0b 74a4 11c1 8c3e 822f 5173 3825 143e
00000080: ef54 d535 0cf5 143e 1c51 a580 2df7 153e
00000090: 3734 1473 b182 c53e 12a7 d76e e9b4 c53e
000000a0: 9a80 bdf5 43bd c43e 5e46 e003 32c7 863e
000000b0: 4f8d 93f9 4d41 873e 94cc f253 e1c7 873e
000000c0: 0d4f ffc1 b56b c13e 800d 6d82 d229 c33e
000000d0: 6f24 b48a f26d c63e 78e4 43dd b396 9a3e
000000e0: d9a4 b641 ba6a 9c3e 2eb9 c1bb 4b55 9e3e
000000f0: 7ceb f241 377e c23e 50b7 0235 b6cc c43e
00000100: 8995 579f 79b2 c33e 5a6b 6563 d39c 753e
00000110: 5a23 950e 3d43 753e dd2c ce33 c9ea 743e
00000120: 9332 c763 20d8 de3e 86a5 d9e1 b738 d93e
00000130: f7c1 cd70 9a1f d63e be71 35b9 1b8f 663e
00000140: 9409 64ff 4648 663e 5e23 01cb 9b63 663e
00000150: 3835 a79e a08b 3a3e 0e06 cd78 7bb4 433e
00000160: b090 ed9d 8c63 433e 164e 6b00 e513 df3d
00000170: 823c ee9d b7c8 e03d a48a a1b7 7907 e23d
00000180: 7961 5e9e cea4 d33e f37b 3879 461f d53e
00000190: 5b70 2ddf edca d63e 6375 22c1 1283 a63e
000001a0: c5ba 2e7f d51a a83e 310d 77b5 ebca a93e
000001b0: a706 59cf 6f70 ca3e fe81 47b9 a5cd c83e
000001c0: f5d4 6a91 6c29 c53e 54b9 35ea bb70 713e
000001d0: ed7f 60be 8daa 703e 0d77 6e71 54e0 6f3e
000001e0: 8bd3 5aa7 8eb3 8e3e 5ed4 2372 debd 863e
000001f0: b917 705a a998 843e 6b5b 0066 cccf 183e
00000200: 39da cc07 7428 183e 9db2 a5fd 5a1f 173e
00000210: f1f3 7c78 9b44 da3e 1871 5f8d 39eb d73e
00000220: 8563 9672 c052 da3e d22d 9c2e 90a0 ad3e
00000230: 9c26 3829 612d af3e b424 fbdb 196d b03e
00000240: 6d21 fee8 08d9 d93e 8167 6487 afeb da3e
00000250: 2225 3362 430e d83e efd2 f9a5 d456 863e
00000260: c06c cf53 b938 863e 9511 e8a2 633e 863e
00000270: 2c7b 6fa6 9ca2 8e3e 0891 e5fa c79d 913e
00000280: 7aeb aa0d f5c5 903e 6418 ae3e 33b9 403e
00000290: c59a 3983 a109 403e 7d13 1365 75bb 3e3e
000002a0: 3064 f712 51a1 e53e 8adf 542c 170c e63e
000002b0: 7578 e6b3 406f e93e 4823 2e2f 39ac c23e
000002c0: 433b 9c48 61f0 c33e 9af1 69e7 a247 c53e
000002d0: 4292 755f b425 bf3e b5f0 c8e6 46af be3e
000002e0: 4d3b 6d87 f350 b93e 1485 0729 a148 4b3e
000002f0: 9912 8cd9 3fb3 4b3e ad36 bcf5 d65f 4c3e

exp_avg f8 [16]
-7.090808186533057e-05 0.0002066033449477313 -3.5282313112601786e-06 0.00022225071496812402 0.0006172378811224624 0.00031944518776094266 0.0002444556371380967 3.821450183570782e-06
-0.0009485254244595662 -0.00039132544830941437 -1.309103379721052e-05 -0.0013457815457991317 -0.000806853520162603 6.985708982831017e-05 0.0017089835439217224 0.00010118487042818886
00000000: 9a90 0e92 8f96 12bf 3903 3738 7514 2b3f
00000010: 9758 15ad d198 cdbe a128 c71a 7f21 2d3f
00000020: 9cf0 b241 c439 443f ac57 61a2 66ef 343f
00000030: fe3b 82f7 4805 303f 26fa 5a3a 4007 d03e
00000040: 5a9c b7d6 ce14 4fbf ef2d a900 5aa5 39bf
00000050: 1306 26fc 3174 ebbe 3d5c 83ee 9d0c 56bf
00000060: fa56 aabd 6070 4abf c2fd 31aa 0750 123f
00000070: b710 8e1b ffff 5b3f 17fb 5cd6 6686 1a3f

exp_avg_sq f8 [16]
5.8230094660364904e-05 0.00014073429558226247 7.06026338454241e-07 0.0001248486330515773 0.000526789706413255 4.1622583263912234e-05 4.444875774673899e-05 8.305271567647938e-08
0.0009570364051216239 3.928700252698767e-05 6.887117325191382e-07 0.0012918985832279905 0.00024105026952235396 7.396735126151494e-06 0.003270544371998691 2.0343200499861798e-05
00000000: 8415 53d1 8287 0e3f d9d0 d664 4272 223f
00000010: 40d7 5856 b8b0 a73e 9419 8197 395d 203f
00000020: c90a cc47 0843 413f bbc6 3612 7dd2 053f
00000030: c8a5 dcaf cf4d 073f 4969 5fd3 564b 763e
00000040: f56d d107 345c 4f3f d085 ca20 0399 043f
00000050: 4d0b be1d fd1b a73e 33a8 8a8a 9d2a 553f
00000060: cacd 6f0c 4e98 2f3f 9693 d711 2f06 df3e
00000070: f56f c523 d4ca 6a3f 6db3 ee17 d654 f53e

exp_avg f8 [8, 16, 3]
2.5e-323 2.5e-323 2.5e-323 -2.5e-323 -2.5e-323 -2.5e-323 -2.5e-323 -2.5e-323
-2.5e-323 -2.5e-323 -2.5e-323 -2.5e-323 -2.5e-323 -2.5e-323 -2.5e-323 -2.5e-323
-2.5e-323 -2.5e-323 -2.5e-323 -2.5e-323 -2.5e-323 2.5e-323 2.5e-323 2.5e-323
2.5e-323 2.5e-323 2.5e-323 2.5e-323 2.5e-323 2.5e-323 -2.5e-323 -2.5e-323
-2.5e-323 2.5e-323 2.5e-323 2.5e-323 2.5e-323 2.5e-323 2.5e-323 -2.5e-323
-2.5e-323 -2.5e-323 -2.5e-323 -2.5e-323 -2.5e-323 -2.5e-323 -2.5e-323 -2.5e-323
2.5e-323 2.5e-323 2.5e-323 -2.5e-323 -2.5e-323 -2.5e-323 2.5e-323 -2.5e-323
-2.5e-323 -2.5e-323 -2.5e-323 -2.5e-323 2.5e-323 2.5e-323 -2.5e-323 -2.5e-323
-2.5e-323 2.5e-323 -2.5e-323 -2.5e-323 -2.5e-323 2.5e-323 -2.5e-323 2.5e-323
-2.5e-323 -2.5e-323 -2.5e-323 2.5e-323 2.5e-323 -2.5e-323 2.5e-323 -2.5e-323
2.5e-323 -2.5e-323 2.5e-323 2.5e-323 2.5e-323 2.5e-323 2.5e-323 -2.5e-323
-2.5e-323 -2.5e-323 2.5e-323 -2.5e-323 2.5e-323 -2.5e-323 -2.5e-323 -2.5e-323
2.5e-323 2.5e-323 2.5e-323 -2.5e-323 -2.5e-323 -2.5e-323 2.5e-323 2.5e-323
-2.5e-323 -2.5e-323 -2.5e-323 -2.5e-323 2.5e-323 2.5e-323 2.5e-323 -2.5e-323
-2.5e-323 -2.5e-323 -2.5e-323 2.5e-323 -2.5e-323 2.5e-323 2.5e-323 -2.5e-323
-2.5e-323 2.5e-323 -2.5e-323 2.5e-323 2.5e-323 2.5e-323 2.5e-323 2.5e-323
-2.5e-323 -2.5e-323 -2.5e-323 -2.5e-323 2.5e-323 -2.5e-323 2.5e-323 -2.5e-323
2.5e-323 -2.5e-323 2.5e-323 2.5e-323 2.5e-323 -2.5e-323 2.5e-323 -2.5e-323
2.097884193180562e-91 1.4985695885414762e-05 1.755990876241981e-05 -3.7168522303660555e-91 -1.5886402562044548e-05 -1.850388718798154e-05 4.0639800222060695e-94 6.441149104343874e-06
-2.3102998444504278e-07 -9.620962718553911e-92 -5.462197970290367e-06 -1.2056874573121662e-05 -2.2215912984498053e-91 5.3653923174782e-06 7.663963606326248e-06 -5.0097045897372896e-92
-1.0487160462562567e-05 -1.3243374270083269e-05 -9.62527458370544e-92 7.738921833477981e-06 -1.211616671551214e-06 -4.701617677200666e-93 7.462527952043946e-06 -1.8881233292001968e-07
1.2350696667458039e-91 4.809447335137869e-06 -4.094897725596969e-06 1.39671280884562e-91 1.180825356056424e-06 1.010452255421432e-05 -4.847837732338726e-93 6.007858245446471e-06
-4.711583831525508e-08 2.8391024293877824e-91 -1.0156520622806543e-05 -3.200740266722965e-06 1.8692112940867553e-91 -5.999495101303672e-07 2.6955465383940155e-06 -2.035202111921134e-91
4.666892432466289e-06 -3.1208828220072326e-06 -8.102902897897263e-92 1.108517979863049e-05 4.851272538984543e-06 -1.4759558817751948e-91 2.073283441653342e-06 -5.717936293829898e-07
1.8774353586504897e-06 -1.4015904359692316e-06 -4.53069285800815e-06 3.2339925952734292e-06 6.457321102871812e-06 9.789694116832067e-06 8.37402891370345e-07 -7.753656178164801e-07
6.197032872889506e-08 1.0028194265564723e-05 1.1083019030125198e-05 1.3106040426626993e-05 4.392863389779975e-06 2.820735901678888e-06 1.9701601958664265e-06 1.9622704678739825e-05
2.19003796419601e-05 2.444146695821995e-05 1.1151885559931953e-05 9.059297646701004e-06 8.389805596318031e-06 7.735246199648945e-07 -1.069592883273046e-06 -1.4409901114433858e-06
-1.4893134268431723e-05 -1.583146477546169e-05 -1.5124603097949556e-05 -2.3010818970679604e-05 -2.2884892855612252e-05 -2.6568879229302917e-05 9.463516879571269e-08 -1.3392746333316973e-06
-6.282936840143035e-07 -1.2254105648461012e-05 -9.31672180777894e-06 -8.296434867785992e-06 -1.2930205588614873e-05 -1.2422429100707463e-05 -1.0828438111069298e-05 -5.300192116895164e-06
-6.697986233501808e-06 -6.9749564269239014e-06 1.4094007174775311e-05 1.1208722369645729e-05 1.030126896047322e-05 1.3572380612961494e-05 1.2764784315387764e-05 1.191740574141941e-05
2.1554710073708202e-104 2.2050392438020606e-104 2.2579736207061422e-104 -4.095789360537241e-104 -4.176030023879512e-104 -4.259137281487917e-104 -5.74019940380251e-107 -6.098513395129237e-107
-6.523104925609932e-107 -7.375618603374104e-105 -7.968663735346927e-105 -8.585401743182252e-105 -2.9358675716935505e-104 -2.9544566977831175e-104 -2.970392116386579e-104 2.7822740248612697e-106
00000000: 0500 0000 0000 0000 0500 0000 0000 0000
00000010: 0500 0000 0000 0000 0500 0000 0000 0080
00000020: 0500 0000 0000 0080 0500 0000 0000 0080
00000030: 0500 0000 0000 0080 0500 0000 0000 0080
00000040: 0500 0000 0000 0080 0500 0000 0000 0080
00000050: 0500 0000 0000 0080 0500 0000 0000 0080
00000060: 0500 0000 0000 0080 0500 0000 0000 0080
00000070: 0500 0000 0000 0080 0500 0000 0000 0080
00000080: 0500 0000 0000 0080 0500 0000 0000 0080
00000090: 0500 0000 0000 0080 0500 0000 0000 0080
000000a0: 0500 0000 0000 0080 0500 0000 0000 0000
000000b0: 0500 0000 0000 0000 0500 0000 0000 0000
000000c0: 0500 0000 0000 0000 0500 0000 0000 0000
000000d0: 0500 0000 0000 0000 0500 0000 0000 0000
000000e0: 0500 0000 0000 0000 0500 0000 0000 0000
000000f0: 0500 0000 0000 0080 0500 0000 0000 0080
00000100: 0500 0000 0000 0080 0500 0000 0000 0000
00000110: 0500 0000 0000 0000 0500 0000 0000 0000
00000120: 0500 0000 0000 0000 0500 0000 0000 0000
00000130: 0500 0000 0000 0000 0500 0000 0000 0080
00000140: 0500 0000 0000 0080 0500 0000 0000 0080
00000150: 0500 0000 0000 0080 0500 0000 0000 0080
00000160: 0500 0000 0000 0080 0500 0000 0000 0080
00000170: 0500 0000 0000 0080 0500 0000 0000 0080
00000180: 0500 0000 0000 0000 0500 0000 0000 0000
00000190: 0500 0000 0000 0000 0500 0000 0000 0080
000001a0: 0500 0000 0000 0080 0500 0000 0000 0080
000001b0: 0500 0000 0000 0000 0500 0000 0000 0080
000001c0: 0500 0000 0000 0080 0500 0000 0000 0080
000001d0: 0500 0000 0000 0080 0500 0000 0000 0080
000001e0: 0500 0000 0000 0000 0500 0000 0000 0000
000001f0: 0500 0000 0000 0080 0500 0000 0000 0080
00000200: 0500 0000 0000 0080 0500 0000 0000 0000
00000210: 0500 0000 0000 0080 0500 0000 0000 0080
00000220: 0500 0000 0000 0080 0500 0000 0000 0000
00000230: 0500 0000 0000 0080 0500 0000 0000 0000
00000240: 0500 0000 0000 0080 0500 0000 0000 0080
00000250: 0500 0000 0000 0080 0500 0000 0000 0000
00000260: 0500 0000 0000 0000 0500 0000 0000 0080
00000270: 0500 0000 0000 0000 0500 0000 0000 0080
00000280: 0500 0000 0000 0000 0500 0000 0000 0080
00000290: 0500 0000 0000 0000 0500 0000 0000 0000
000002a0: 0500 0000 0000 0000 0500 0000 0000 0000
000002b0: 0500 0000 0000 0000 0500 0000 0000 0080
000002c0: 0500 0000 0000 0080 0500 0000 0000 0080
000002d0: 0500 0000 0000 0000 0500 0000 0000 0080
000002e0: 0500 0000 0000 0000 0500 0000 0000 0080
000002f0: 0500 0000 0000 0080 0500 0000 0000 0080
00000300: 0500 0000 0000 0000 0500 0000 0000 0000
00000310: 0500 0000 0000 0000 0500 0000 0000 0080
00000320: 0500 0000 0000 0080 0500 0000 0000 0080
00000330: 0500 0000 0000 0000 0500 0000 0000 0000
00000340: 0500 0000 0000 0080 0500 0000 0000 0080
00000350: 0500 0000 0000 0080 0500 0000 0000 0080
00000360: 0500 0000 0000 0000 0500 0000 0000 0000
00000370: 0500 0000 0000 0000 0500 0000 0000 0080
00000380: 0500 0000 0000 0080 0500 0000 0000 0080
00000390: 0500 0000 0000 0080 0500 0000 0000 0000
000003a0: 0500 0000 0000 0080 0500 0000 0000 0000
000003b0: 0500 0000 0000 0000 0500 0000 0000 0080
000003c0: 0500 0000 0000 0080 0500 0000 0000 0000
000003d0: 0500 0000 0000 0080 0500 0000 0000 0000
000003e0: 0500 0000 0000 0000 0500 0000 0000 0000
000003f0: 0500 0000 0000 0000 0500 0000 0000 0000
00000400: 0500 0000 0000 0080 0500 0000 0000 0080
00000410: 0500 0000 0000 0080 0500 0000 0000 0080
00000420: 0500 0000 0000 0000 0500 0000 0000 0080
00000430: 0500 0000 0000 0000 0500 0000 0000 0080
00000440: 0500 0000 0000 0000 0500 0000 0000 0080
00000450: 0500 0000 0000 0000 0500 0000 0000 0000
00000460: 0500 0000 0000 0000 0500 0000 0000 0080
00000470: 0500 0000 0000 0000 0500 0000 0000 0080
00000480: 2b5a 3460 a559 1b2d 0ce2 0a5c 626d ef3e
00000490: 0118 dfbd b369 f23e 7f2d bda2 753a 28ad
000004a0: 78ae 7245 79a8 f0be 09b3 f471 1967 f3be
000004b0: f242 5aa6 7c20 8b2c bca4 8895 2104 db3e
000004c0: 6cd6 ed3b 2102 8fbe 57d9 9521 f415 09ad
000004d0: 8b7e 9e8b fde8 d6be ed86 3539 fc48 e9be
000004e0: d745 c515 84f6 1cad f0c3 66cf 0b81 d63e
000004f0: 8d43 3323 8f12 e03e f547 cb3f ea1f faac
00000500: 25be de5b 40fe e5be 03c0 0780 fbc5 ebbe
00000510: 0c5c 30f0 d418 09ad 6d00 5b51 cd3a e03e
00000520: 0d39 689e da53 b4be 5dec 8115 4c9d c3ac
00000530: a244 6010 d44c df3e 2f3d 17d8 8a57 89be
00000540: 20ee 5f1e 051a 102d 2c8a 29d1 1a2c d43e
00000550: a779 7cea dc2c d1be f89b 582e 8035 122d
00000560: d067 9835 9bcf b33e 30d5 5301 d330 e53e
00000570: a17e ff92 7539 c4ac 30f3 ed7f e332 d93e
00000580: 4079 c22f 8d4b 69be a711 5232 b981 222d
00000590: 2e81 b890 bd4c e5be b12f 0492 89d9 cabe
000005a0: 26c1 c66f 745e 182d 9974 c8ec 8621 a4be
000005b0: 0df8 8e61 a49c c63e f21c 7021 7288 1aad
000005c0: 5e55 af9f 0993 d33e ee11 d279 0b2e cabe
000005d0: a4b6 b9a4 a720 05ad fbe4 b482 4f3f e73e
000005e0: c15f 3ba4 0359 d43e 584f 370d f93d 13ad
000005f0: 771b 3aa0 5764 c13e 161b 077d ab2f a3be
00000600: b016 da01 867f bf3e 6983 52fb c883 b7be
00000610: 0239 ac5e cb00 d3be 5af0 373b f220 cb3e
00000620: 0ed2 c2e8 7e15 db3e a645 7150 cd87 e43e
00000630: 4f1a b16e 3c19 ac3e 992c 6f06 5704 aabe
00000640: 3e19 5f8d 91a2 703e 4531 6b86 d807 e53e
00000650: 866c 6c89 263e e73e e951 fb7a 407c eb3e
00000660: da35 1518 cd6c d23e 66b1 1df6 7ba9 c73e
00000670: bab6 9f05 e386 c03e 892c 67ff 6d93 f43e
00000680: cdcd 1aa1 d6f6 f63e 7b6d edd1 f4a0 f93e
00000690: 3c60 087b 1f63 e73e 94d7 4363 acff e23e
000006a0: dc93 da19 3e98 e13e b48b c7a0 86f4 a93e
000006b0: f9be e8cf ddf1 b1be 580e 0f62 012d b8be
000006c0: 3160 abc9 b03b efbe 977f aff9 b999 f0be
000006d0: c31a 189f f5b7 efbe b5d7 5d70 eb20 f8be
000006e0: f6f2 b8dc 1dff f7be 86bd 647a 07dc fbbe
000006f0: 0fad ec7e 4767 793e 05e9 3908 2478 b6be
00000700: fd97 266c 0015 a5be dd55 c074 dfb2 e9be
00000710: d6a7 bb7e e089 e3be 1121 6653 1d66 e1be
00000720: 716b 9dec d91d ebbe 0ff7 b9a7 3d0d eabe
00000730: 4708 a433 79b5 e6be 7d90 2ab7 093b d6be
00000740: 6953 c56f e817 dcbe 35e1 746c 4d41 ddbe
00000750: 4cf3 a898 a98e ed3e c178 7e12 a381 e73e
00000760: 31a9 17a0 739a e53e bb20 9ec9 9d76 ec3e
00000770: 7c7d fc98 0ac5 ea3e 168f f0c5 1bfe e83e
00000780: 96b7 65f1 c4b7 682a 2c7a b223 4949 692a
00000790: c8f2 8a1a afe4 692a 64e2 39b7 f57b 77aa
000007a0: c944 7c7e bdf1 77aa 10cd 8471 ba6b 78aa
000007b0: 79b1 98ef f3d9 e0a9 d0c6 3ae6 3ce7 e1a9
000007c0: 738e df2b 5526 e3a9 e318 4e14 7dea 50aa
000007d0: e947 45c0 af46 52aa ccd9 129f cbb0 53aa
000007e0: 104a fd99 61d5 70aa bba4 37c7 aaf0 70aa
000007f0: a6bd 97c7 0e08 71aa f51e 6664 6e6b 042a

exp_avg_sq f8 [8, 16, 3]
2.1784695916811227e-31 2.2474784558512806e-31 2.408554830461363e-31 1.8983486198253727e-31 2.012925640919205e-31 2.172703213751951e-31 1.9024777921381433e-32 1.8239235912164193e-32
1.966723424314298e-32 7.289261651163836e-32 7.545241123335312e-32 7.388663408832042e-32 9.720809986173856e-32 1.085341629764303e-31 9.951883481702344e-32 2.988623529232292e-31
2.9460026246764464e-31 2.914240519837033e-31 1.6759694987786492e-33 2.612429852438962e-33 1.7516893295349086e-33 7.998407339071541e-32 9.129484144596866e-32 9.01061065889493e-32
1.6351922985850475e-32 1.6601923253785155e-32 1.4012982303144893e-32 1.8095110488589704e-31 1.7103236202509527e-31 1.7397872533415286e-31 4.6615653938977685e-35 4.684004808451243e-35
4.606010427625538e-35 5.221867192580938e-32 4.9112789753515517e-32 5.606188194578344e-32 1.2556832124094785e-32 1.0852702800665017e-32 1.4291170061282778e-32 2.490935124145365e-31
2.3952017041725964e-31 2.736875863371185e-31 1.2796824242902727e-32 1.2259897837542931e-32 1.1077347375269913e-32 1.70898496813475e-32 1.5437028717924964e-32 1.971927427628404e-32
2.391031322118868e-25 8.898799255831493e-26 4.659546707061838e-28 1.9616266633807569e-25 5.442960450815388e-26 7.7012406304768365e-28 1.3181898731954588e-29 9.421672234790297e-28
4.223483341859942e-32 8.043322189369441e-26 6.303023657221706e-26 1.3003542360256626e-31 3.0137116742262893e-26 4.6261813660623764e-26 2.6065492038282386e-28 9.164261365162095e-26
2.842425500811593e-26 3.5309232840656337e-28 1.451447937164719e-28 4.360314735549042e-26 7.85225156106564e-31 3.0978074289588797e-27 1.3930205911025278e-26 1.5201347864360524e-28
4.316139132998271e-27 3.9145002788350346e-26 1.810851393934862e-30 5.208126547894239e-26 2.008482553248005e-27 1.517078778422913e-28 3.5242553543230884e-30 3.4535446201552856e-28
6.331149114142566e-33 6.568682318430293e-27 3.2218318195979053e-27 1.8788113541544012e-28 2.6072246907469835e-27 5.918469991724636e-26 3.3540659048663876e-29 1.770515930543817e-26
6.860988511207399e-26 1.0911415054806062e-27 9.238396207722353e-27 6.471203116403959e-28 1.657599552057155e-29 8.762628898187049e-29 1.2364450477451815e-26 2.1836663104307148e-29
2.5577336358499252e-30 2.3200496347986103e-23 3.2048435308437644e-23 1.689228215202824e-30 2.2265159484956606e-23 2.903896698987676e-23 1.3189204691572336e-32 3.905570743762446e-24
1.3353674417373944e-29 6.930377637919442e-31 2.6429341925282737e-24 1.262502609766759e-23 2.574585921791659e-31 2.0572046252913474e-24 4.46591303572643e-24 9.696850484424075e-31
8.666522114818318e-24 1.393576387363727e-23 9.054792941030244e-33 5.47396895475219e-24 8.395286880283301e-26 2.5278154359923174e-31 5.18196952691222e-24 1.516200357065171e-27
1.192229253031239e-31 2.6916748337048683e-24 9.626222843195247e-25 5.671515676197489e-31 5.57204066964299e-26 8.257721422257415e-24 5.759131459641887e-33 3.0976630601125528e-24
2.5348866486351846e-26 8.261864054286344e-32 8.626314448216158e-24 7.566179335710657e-25 5.639086524091172e-32 3.10237268169885e-26 5.706205473696906e-25 4.545372670173798e-31
1.0700802640348154e-24 1.538096449258831e-24 5.420396830608007e-32 9.629441996571727e-24 1.377375377374637e-24 4.716325801529245e-32 3.8695238480843053e-25 1.6097735589350938e-26
1.2630645156922492e-13 1.0642495258566003e-07 1.4621941695372317e-07 2.2622316191665367e-13 1.1832888020215795e-07 1.6042569030895664e-07 1.5619656589585265e-14 1.996857374809276e-08
1.3137436685630305e-11 2.155251627492007e-14 1.410605614833433e-08 6.840478527456806e-08 5.574995470817518e-14 1.3233369035999149e-08 2.6835523093593713e-08 4.377337607459874e-14
5.154738613208341e-08 8.244523101315234e-08 2.988595632254875e-14 2.800897629029154e-08 7.032325245607845e-10 2.053818848711001e-14 2.6504520270163886e-08 1.2978659811256478e-11
2.4481901317631024e-14 1.1100515259343964e-08 7.425339119001578e-09 2.2879678825229855e-14 6.750262810262826e-10 4.8169949014117975e-08 1.2024560460218459e-14 1.645292075352236e-08
2.193401761037232e-11 1.1270221804235675e-13 4.779005840088747e-08 4.525270914898816e-09 3.495465572912196e-14 1.4842247277129215e-10 3.585814048374055e-09 4.6270297882174313e-14
9.778683386801984e-09 4.8861496190047595e-09 4.7916529873198333e-14 5.67954654149968e-08 1.0514322596917522e-08 2.3228196239534757e-14 2.004435686492816e-09 1.677534860389458e-10
1.458543410262509e-07 1.5758867040871515e-07 1.893598238391019e-07 1.538892316091252e-07 1.7667252420826632e-07 2.2064285529414548e-07 1.9759427942884276e-09 3.7290875485304634e-10
3.606999953504083e-11 5.6490231072027495e-08 5.0968636346026804e-08 6.055157164204942e-08 6.487341589836807e-08 6.404805401557855e-08 5.9098958494439964e-08 1.1144634932002936e-07
1.0960638351051394e-07 1.1938513711852667e-07 1.8177168574755293e-08 1.8199650577232484e-08 1.069037407153637e-08 2.835137958684971e-09 2.6075725058024593e-09 7.685388902464889e-10
6.002268218756725e-08 5.170412244709869e-08 5.273360362204921e-08 8.689692654651119e-08 7.808972565613777e-08 9.328041338928638e-08 1.5801289524929188e-09 3.890490260469608e-10
1.0896489594606139e-10 5.012967460343711e-08 4.3771911499425685e-08 4.072169190826886e-08 1.7423504737559595e-08 1.7850892430041484e-08 1.1854835642450623e-08 6.131913024649259e-08
4.808202966085175e-08 5.674718575343368e-08 5.234961804807802e-08 5.60266674168466e-08 5.1679452362847164e-08 2.2947796874846246e-08 2.2651573587887167e-08 1.8835029926499334e-08
1.0556840989706652e-19 3.7339363786553583e-19 4.798776630894168e-19 3.8110794952913677e-19 6.477349321696618e-19 7.393275126683126e-19 7.492909596420225e-25 4.3845877765177633e-20
1.3209149050317597e-23 1.2364084513180914e-20 4.369711629458726e-20 1.5794701836121187e-19 1.957942935111735e-19 2.2170665025204943e-19 2.525948578521182e-19 2.176911278972585e-23
00000000: 1bab 911b 81ac 9139 96a2 6c83 d43b 9239
00000010: 9863 6d67 5f8a 9339 55b6 4681 6ecd 8e39
00000020: 4173 9cd8 ae54 9039 5a7c e02c 87a0 9139
00000030: f0d6 841d 11b2 5839 0744 7d97 06ad 5739
00000040: 7709 3841 8f87 5939 0d04 3e81 aea7 7739
00000050: 1f9c 5951 577c 7839 36cb b3eb 42fa 7739
00000060: 399f e0a4 bb8b 7f39 5889 f42e 559c 8139
00000070: c868 51c5 d925 8039 1359 58d3 203f 9839
00000080: c09c 6eaa 9be6 9739 a42f bf08 a4a4 9739
00000090: 218b 61bc 7d67 2139 708d 90a0 0721 2b39
000000a0: c9e2 79fb c930 2239 af2e f31c d1f4 7939
000000b0: cd2c c28b 7aa0 7d39 cbfc 95f3 b83d 7d39
000000c0: a45c abc3 db39 5539 490e 606f ef8c 5539
000000d0: ff7c 49b2 9c30 5239 d6e7 2332 6a5c 8d39
000000e0: f583 c207 68c0 8b39 b3d0 9a23 cb3a 8c39
000000f0: 52c5 6016 3efb ce38 92b6 b5d4 6b21 cf38
00000100: ae29 a47c b89c ce38 3b72 7c54 28f2 7039
00000110: f744 fd0a 43e0 6f39 55f0 1e5e 7031 7239
00000120: 5c0a 9923 b94c 5039 4f81 c0b2 db2c 4c39
00000130: 5662 2b4b 0e8d 5239 69ce f447 7835 9439
00000140: c23f 0faa a36e 9339 b9e3 b3ce 4434 9639
00000150: 9cd6 1d69 799c 5039 df87 f586 19d4 4f39
00000160: cfc0 f5fd 28c2 4c39 e73a fe9f 132f 5639
00000170: 0c36 e72a d509 5439 62d6 c754 da98 5939
00000180: bbf9 8fea ec7f d23a 4336 35ea 5a8a bb3a
00000190: 23e2 887c 5775 423a 5931 18c6 cd5a ce3a
000001a0: 2fbd 7f88 5bd8 b03a 6351 6a60 fc81 4e3a
000001b0: 9358 504d c5b5 f039 7931 8afa 5aa9 523a
000001c0: 4c52 a122 7769 6b39 6247 5c8d 93e4 b83a
000001d0: b8bc 5813 c581 b33a 9afe d0cd 7519 8539
000001e0: b81b 2cb1 6aa7 a23a ebf8 7a1b 7aa2 ac3a
000001f0: c174 69b9 b5a6 343a afa2 f806 ad5c bc3a
00000200: 0e3c f8c3 0098 a13a 8acf 0330 90f9 3b3a
00000210: 512f 80b6 c5ff 263a 7a81 12ca 31fd aa3a
00000220: d521 5f85 3eda af39 a0ec 03f9 dfad 6e3a
00000230: ebee 8f91 a83e 913a 8a76 1937 6616 283a
00000240: d28b 943a 5b5f 753a 2fb5 02f6 c53a a83a
00000250: ae30 3c2f 3d5d c239 4884 228f 4d1e b03a
00000260: 8354 dab4 1be4 633a 7874 d1ac 000a 283a
00000270: 1d95 66b8 bede d139 f559 61e3 9e5c 3b3a
00000280: b832 f433 c56f 4039 6c99 88a4 6543 803a
00000290: 043f 8a67 50e8 6f3a 2ceb 2542 5dc5 2d3a
000002a0: 0dc3 4792 19d2 693a 1022 7453 1851 b23a
000002b0: 1d57 0978 4842 053a 1e7b 2a2c fdea 953a
000002c0: 328e eeca d53b b53a 7aa7 1ca7 be9c 553a
000002d0: 79a9 db7c 87df 863a fccd 6f61 94a2 493a
000002e0: b2f9 dcd4 3703 f539 05ff ecd1 16c5 1b3a
000002f0: 4000 f9ca e69c 8e3a c79e ecfe 66ae fb39
00000300: 3fb8 c793 41f0 c939 d418 f0b1 340c 3c3b
00000310: 8d7a 0a52 415f 433b 6a5f abb7 7c21 c139
00000320: 6184 90ac bbea 3a3b 1c51 7aff 8f8d 413b
00000330: 3d81 9372 dd1e 5139 3d7e 3ec6 dce2 123b
00000340: 935e 1dde 83ed f039 33e7 4165 ea1c ac39
00000350: 426e c98e 968f 093b e5ad 233d 8386 2e3b
00000360: f3ff 85ac 34e3 9439 d01b ca56 64e5 033b
00000370: 7d91 c755 8898 153b f4aa 7383 e4aa b339
00000380: 3563 be3e 51f4 243b b45e 06f7 e8d8 303b
00000390: 42af dd2f f181 4739 6be8 fd01 7278 1a3b
000003a0: 082f f378 6efb b93a e826 e137 1182 9439
000003b0: 2870 feb1 f70e 193b 8a20 7596 0c08 5e3a
000003c0: 5303 b599 5358 8339 c0f1 f99b 4308 0a3b
000003d0: 073f 6db7 ac9e f23a 7646 aa7b a301 a739
000003e0: 7a6a a51c a03e b13a c7e2 8e30 48f7 233b
000003f0: c350 6ee2 32e7 3d39 0693 fe37 71f5 0d3b
00000400: a34a 4c5f 6061 9f3a 3b36 e428 b0cf 7a39
00000410: a769 0416 6edb 243b f4f2 f25a 2e45 ed3a
00000420: fee3 8c11 c54c 7239 e172 95de e733 a33a
00000430: fabc 70f5 2613 e63a 211e 2652 2f70 a239
00000440: dc3f 95e3 c7b2 f43a 62c3 19e3 48c0 fd3a
00000450: f071 1bea 1697 7139 457c a8fd 5548 273b
00000460: e572 4fb9 6ea4 fa3a 0273 3622 579c 6e39
00000470: a2c6 02b1 61f0 dd3a 106f b877 93ed 933a
00000480: 69f8 ba64 abc6 413d 82c5 ce90 7791 7c3e
00000490: df82 da97 0fa0 833e a6f3 bd62 8cd6 4f3d
000004a0: 841d c9ac 7fc3 7f3e 144c 8c4b 2f88 853e
000004b0: 55a7 023b 0f96 113d fc03 2a75 eb70 553e
000004c0: d415 a628 b8e3 ac3d 59a9 e901 1744 183d
000004d0: aad9 b4e9 e24a 4e3e 3410 79b5 bd5c 723e
000004e0: 471e 124b 6a62 2f3d af03 e01e 1f6b 4c3e
000004f0: 52e9 370f 7ed0 5c3e 3f91 0888 68a4 283d
00000500: 48e7 f369 9eac 6b3e ba57 abd7 9721 763e
00000510: 9468 e42c 05d3 203d d666 bc7c 0c13 5e3e
00000520: 3a0d 27de b229 083e 83b7 b8d3 ba1f 173d
00000530: 430a 73ce 8175 5c3e 5f7d eaff 558a ac3d
00000540: f490 e078 6d90 1b3d 7eb6 15a3 92d6 473e
00000550: dfb9 d427 3fe4 3f3e ee3d b151 9ec2 193d
00000560: 4ef5 c80d 9831 073e 4e62 dc68 6ddc 693e
00000570: 8a00 4fea af13 0b3d 1850 195f 8baa 513e
00000580: 11e5 5d89 e01d b83d 273e 07f9 0cb9 3f3d
00000590: bd99 6932 37a8 693e 0657 7f86 966f 333e
000005a0: 175a 452d 7fad 233d 0bf9 3fc9 2666 e43d
000005b0: 8089 fcd9 49cd 2e3e 8f0a beaf 400c 2a3d
000005c0: f515 db56 e3ff 443e 5da2 a7d9 60fc 343e
000005d0: 1f17 4ced 7ff9 2a3d 6035 c2c9 e87d 6e3e
000005e0: 1ee1 a25a 4f94 463e 2e32 845d 1227 1a3d
000005f0: f7e2 f1f9 cc37 213e 7adb 0d13 4d0e e73d
00000600: 72b6 f259 8493 833e df4d aa9a b426 853e
00000610: 1a55 0aa0 5a6a 893e c6ca 10ff 97a7 843e
00000620: 2771 18f5 6bb6 873e 0f3d 7114 3b9d 8d3e
00000630: ec0e 6de7 24f9 203e deea b9ba 47a0 f93d
00000640: 44b3 14b1 66d4 c33d 014d 364f f553 6e3e
00000650: 12a4 4f77 135d 6b3e 64dc 7b83 1241 703e
00000660: 4288 aa33 116a 713e 0cc8 3248 5931 713e
00000670: f336 e8be 7fba 6f3e 0ffd 44e9 88ea 7d3e
00000680: f374 efe3 176c 7d3e 7931 85c5 0a06 803e
00000690: f3cb 7a86 8084 533e 7849 3b8e ae8a 533e
000006a0: 07ed 7a65 18f5 463e be0a 23c8 885a 283e
000006b0: e55b 18d2 1c66 263e d18e d8ba 2368 0a3e
000006c0: 873a 2231 ba1c 703e dd2b 2c15 29c2 6b3e
000006d0: 508c 3ebb a64f 6c3e dfb6 03e6 8253 773e
000006e0: 6dcf 5dfb 48f6 743e ee1f fb62 2e0a 793e
000006f0: ed61 580a 7b25 1b3e f5d3 790c 39bc fa3d
00000700: c343 220f b9f3 dd3d 237e ba1f c5e9 6a3e
00000710: 08df a238 f77f 673e 1d09 0229 bfdc 653e
00000720: fa34 c625 56b5 523e d812 fce1 d02a 533e
00000730: a116 0ecb 4375 493e 2ef8 208c d175 703e
00000740: ce47 ba05 58d0 693e 211b 3a19 4677 6e3e
00000750: f02a ab70 e01a 6c3e 27ad 001d 3f14 6e3e
00000760: fedc ce14 c5be 6b3e ad70 d1a5 d7a3 583e
00000770: 6ba3 7ac9 6a52 583e cbb2 0867 5539 543e
00000780: f827 fb05 8628 ff3b 8369 bad6 348d 1b3c
00000790: 6b6d 8cfe 50b4 213c 0a17 03f6 ec1e 1c3c
000007a0: 3935 b0f7 aee5 273c 5fe7 093d c046 2b3c
000007b0: 1917 fc44 9efc ec3a 3c1f 253d cde1 e93b
000007c0: c5c3 1b37 11f0 2f3b 3040 9368 a131 cd3b
000007d0: 0f27 e64e 52cb e93b b9ec 3ad4 114f 073c
000007e0: c159 cd36 e6e4 0c3c 70a6 5293 eb5b 103c
000007f0: 53b3 40c8 61a3 123c 122f 4fce 3651 3a3b

exp_avg f8 [8]
2.5e-323 2.5e-323 2.5e-323 2.230825129919339e-05 5.829997929427036e-05 1.7123298381036314e-103 1.6171159582330394e-05 0.0
00000000: 0500 0000 0000 0000 0500 0000 0000 0000
00000010: 0500 0000 0000 0000 b155 2e5b 5364 f73e
00000020: 1bb1 1009 e490 0e3f 2d8c f3d0 8f8b 982a
00000030: ca21 ed9f e9f4 f03e 0000 0000 0000 0000

exp_avg_sq f8 [8]
3.246965211734157e-30 3.2146058704568776e-25 4.4925512638838415e-23 2.326813659275581e-07 3.4816405169091144e-06 7.172910476356138e-18 1.132645890024722e-07 0.0
00000000: 1ec4 e343 cd76 d039 40a5 10d3 2edf d83a
00000010: 8c5a 7fe8 e227 4b3b 9c96 71f0 de3a 8f3e
00000020: 22b8 b41d c434 cd3e 6d20 a795 238a 603c
00000030: 0968 d3b8 7b67 7e3e 0000 0000 0000 0000

exp_avg f8 [8, 16, 3]
2.5e-323 2.5e-323 2.5e-323 -2.5e-323 -2.5e-323 -2.5e-323 2.5e-323 2.5e-323
2.5e-323 -2.5e-323 -2.5e-323 -2.5e-323 2.5e-323 2.5e-323 2.5e-323 -2.5e-323
-2.5e-323 -2.5e-323 -2.5e-323 -2.5e-323 -2.5e-323 2.5e-323 2.5e-323 2.5e-323
-2.5e-323 -2.5e-323 -2.5e-323 2.5e-323 2.5e-323 2.5e-323 -2.5e-323 2.5e-323
-2.5e-323 -2.5e-323 -2.5e-323 -2.5e-323 2.5e-323 2.5e-323 2.5e-323 -2.5e-323
-2.5e-323 -2.5e-323 2.5e-323 2.5e-323 2.5e-323 -2.5e-323 -2.5e-323 -2.5e-323
9.504557935396425e-188 9.775153545678168e-188 1.0065429992365767e-187 -1.739516082326305e-187 -1.7793027645517012e-187 -1.8207247704171464e-187 -1.709720467339302e-190 -1.7081742896463962e-190
-1.7362295471420615e-190 -4.4133497370969373e-188 -4.7095541304911545e-188 -5.0192159366700666e-188 -1.1446671116664329e-187 -1.149646008807839e-187 -1.1530200661633553e-187 -2.1955465126270664e-188
-2.614476299807337e-188 -3.049147768707124e-188 -5.024560172632437e-188 -5.1922151842563355e-188 -5.35702575313084e-188 -2.33466906225703e-189 -2.323304412984569e-189 -2.307756936958688e-189
6.704688983960711e-188 6.904043179381406e-188 7.094593418402897e-188 6.878785540948176e-188 7.32745791854088e-188 7.785212715585616e-188 -2.2696497021800542e-189 -2.250522581546725e-189
-2.2210647294977542e-189 1.4445612579864667e-187 1.4651203621214978e-187 1.484346821842018e-187 9.445896718629301e-188 9.696525533183089e-188 9.944129652553883e-188 -1.0079570165527611e-187
-1.011014036464523e-187 -1.0139487984247878e-187 -4.652854946619463e-188 -4.791829505765224e-188 -4.920638697474948e-188 -7.674356387842744e-188 -7.895574849371373e-188 -8.112350170731126e-188
2.5e-323 2.5e-323 2.5e-323 -2.5e-323 -2.5e-323 -2.5e-323 2.5e-323 2.5e-323
2.5e-323 -2.5e-323 -2.5e-323 -2.5e-323 -2.5e-323 -2.5e-323 -2.5e-323 2.5e-323
2.5e-323 2.5e-323 -2.5e-323 -2.5e-323 -2.5e-323 2.5e-323 2.5e-323 2.5e-323
-2.5e-323 -2.5e-323 -2.5e-323 -2.5e-323 -2.5e-323 -2.5e-323 -2.5e-323 -2.5e-323
-2.5e-323 2.5e-323 2.5e-323 2.5e-323 2.5e-323 2.5e-323 2.5e-323 -2.5e-323
-2.5e-323 -2.5e-323 2.5e-323 2.5e-323 2.5e-323 -2.5e-323 -2.5e-323 -2.5e-323
4.331219355365321e-05 3.5440619848112595e-05 2.78216459910715e-05 -4.49951927507505e-05 -3.5373780834944576e-05 -2.8473030067472763e-05 -1.174891202086154e-06 -2.1650712484559067e-06
-9.664545595767043e-07 -3.101650230252335e-05 -2.862925398835378e-05 -1.8393134492685958e-05 2.102990888381474e-05 2.2109081594185677e-05 1.3378951141905935e-05 -3.45324204921443e-05
-2.7967524266047836e-05 -2.12518652695816e-05 -3.560785694460113e-06 -1.0389674972065732e-05 1.3512692350030669e-06 -1.0973917946265026e-06 -6.975318758755156e-06 1.1182596374900318e-06
-1.0887976843375809e-05 -1.5774940624320677e-05 -6.693505475770517e-06 2.631205953306828e-05 1.812081488403557e-05 1.6973573825281577e-05 3.726891175653095e-08 -9.861690425640053e-07
3.3094859667329783e-07 -8.959008853756892e-06 -3.921922063431606e-06 -8.929081472970979e-06 6.733112253241023e-06 1.3151679730821086e-05 -2.467345713456807e-07 -6.870308685215579e-06
-1.2152122932811056e-05 -1.9909997327577556e-06 1.1769423198149428e-05 6.761692355290231e-06 9.829554215234915e-06 -1.5293022750489757e-06 -4.723006201971324e-06 1.838957284497488e-06
5.7404870490480355e-06 -7.682154867809804e-07 -7.503947001554242e-06 4.596085550549626e-06 1.1271708481429816e-05 1.890842566563568e-05 -8.344933682114796e-07 -1.455507929434341e-06
9.803925838606999e-08 -3.2959754181124117e-06 4.3094222815203723e-07 3.970140733055057e-06 2.128308629764298e-05 1.8356142504800188e-05 1.7906679601224215e-05 -2.9877537269927803e-06
1.5717428945584108e-06 6.751485753244659e-06 6.76972611146835e-06 5.837998989629019e-06 2.94510534270255e-06 -7.381263987751671e-07 -1.632558988812683e-06 -3.6454564103649193e-06
-1.7444216698636036e-05 -1.6545228821199966e-05 -1.6481223054083752e-05 -4.667197132206937e-06 -7.340600194623372e-06 -1.5772863415494802e-05 -1.620160996628488e-06 -2.225978909241843e-06
-8.606867263606903e-07 -2.226229612886478e-05 -1.9720532962267893e-05 -1.7235390805657075e-05 -1.25420856498532e-05 -1.2627911141514142e-05 -7.796184324408734e-06 5.370709450723739e-06
5.529769746374679e-06 3.93176952278982e-06 1.2924876400606909e-05 9.978534127021514e-06 7.549119545761974e-06 1.2375794430001039e-05 1.1848378088873493e-05 9.420283933240066e-06
0.0 0.0 0.0 0.0 0.0 0.0 0.0 0.0
0.0 0.0 0.0 0.0 0.0 0.0 0.0 0.0
00000000: 0500 0000 0000 0000 0500 0000 0000 0000
00000010: 0500 0000 0000 0000 0500 0000 0000 0080
00000020: 0500 0000 0000 0080 0500 0000 0000 0080
00000030: 0500 0000 0000 0000 0500 0000 0000 0000
00000040: 0500 0000 0000 0000 0500 0000 0000 0080
00000050: 0500 0000 0000 0080 0500 0000 0000 0080
00000060: 0500 0000 0000 0000 0500 0000 0000 0000
00000070: 0500 0000 0000 0000 0500 0000 0000 0080
00000080: 0500 0000 0000 0080 0500 0000 0000 0080
00000090: 0500 0000 0000 0080 0500 0000 0000 0080
000000a0: 0500 0000 0000 0080 0500 0000 0000 0000
000000b0: 0500 0000 0000 0000 0500 0000 0000 0000
000000c0: 0500 0000 0000 0080 0500 0000 0000 0080
000000d0: 0500 0000 0000 0080 0500 0000 0000 0000
000000e0: 0500 0000 0000 0000 0500 0000 0000 0000
000000f0: 0500 0000 0000 0080 0500 0000 0000 0000
00000100: 0500 0000 0000 0080 0500 0000 0000 0080
00000110: 0500 0000 0000 0080 0500 0000 0000 0080
00000120: 0500 0000 0000 0000 0500 0000 0000 0000
00000130: 0500 0000 0000 0000 0500 0000 0000 0080
00000140: 0500 0000 0000 0080 0500 0000 0000 0080
00000150: 0500 0000 0000 0000 0500 0000 0000 0000
00000160: 0500 0000 0000 0000 0500 0000 0000 0080
00000170: 0500 0000 0000 0080 0500 0000 0000 0080
00000180: d99f 403f 9f77 1a19 544a 9f4d 8638 1b19
00000190: 1393 b310 7507 1c19 2fa2 0bc4 5738 2899
000001a0: 00f8 0ba4 28c6 2899 10aa adba cd59 2999
000001b0: e4b8 0b03 6660 8898 9d88 4248 c15a 8898
000001c0: 158e 0fc6 27c1 8898 b25b 22b0 6394 0899
000001d0: 9675 6ce2 b43a 0a99 f05a fff8 35f4 0b99
000001e0: 7436 214a 1ee0 1f99 b5a3 4c54 ce01 2099
000001f0: a5d6 d61d d50d 2099 aa11 0c18 a874 f898
00000200: 5028 b6db 3e1f fd98 4199 4873 5cfb 0099
00000210: 470a e897 d4fb 0b99 c078 4ce0 ddea 0c99
00000220: d177 6bf3 d8d5 0d99 fc4d 96fc e4cd c498
00000230: 5115 2d1e f8b3 c498 40c1 9282 8090 c498
00000240: ca8a 5fd0 a5ab 1219 c42d 297b c339 1319
00000250: dc80 7572 9ac1 1319 c9dc a605 c227 1319
00000260: 7165 4eaa 9b67 1419 501d 13d4 eead 1519
00000270: 8d10 b22c 9239 c498 75e9 de14 f00d c498
00000280: 6d74 7aeb bcca c398 be8e dafd 001d 2419
00000290: 667e 12ee 4866 2419 0875 9bd8 d0aa 2419
000002a0: c622 e0b6 cd4d 1a19 e4b2 b0e0 7800 1b19
000002b0: 22d1 950a fcb0 1b19 4d48 fe9c 8911 1c99
000002c0: 4969 1b9a 5427 1c99 9ea1 0c79 403c 1c99
000002d0: 6f31 a3f3 dde9 0999 d913 6e01 03b0 0a99
000002e0: 62e3 a6bf a967 0b99 9efe d9cf e75e 1599
000002f0: 8d4b dba7 9bfc 1599 d905 0ea3 2497 1699
00000300: 0500 0000 0000 0000 0500 0000 0000 0000
00000310: 0500 0000 0000 0000 0500 0000 0000 0080
00000320: 0500 0000 0000 0080 0500 0000 0000 0080
00000330: 0500 0000 0000 0000 0500 0000 0000 0000
00000340: 0500 0000 0000 0000 0500 0000 0000 0080
00000350: 0500 0000 0000 0080 0500 0000 0000 0080
00000360: 0500 0000 0000 0080 0500 0000 0000 0080
00000370: 0500 0000 0000 0080 0500 0000 0000 0000
00000380: 0500 0000 0000 0000 0500 0000 0000 0000
00000390: 0500 0000 0000 0080 0500 0000 0000 0080
000003a0: 0500 0000 0000 0080 0500 0000 0000 0000
000003b0: 0500 0000 0000 0000 0500 0000 0000 0000
000003c0: 0500 0000 0000 0080 0500 0000 0000 0080
000003d0: 0500 0000 0000 0080 0500 0000 0000 0080
000003e0: 0500 0000 0000 0080 0500 0000 0000 0080
000003f0: 0500 0000 0000 0080 0500 0000 0000 0080
00000400: 0500 0000 0000 0080 0500 0000 0000 0000
00000410: 0500 0000 0000 0000 0500 0000 0000 0000
00000420: 0500 0000 0000 0000 0500 0000 0000 0000
00000430: 0500 0000 0000 0000 0500 0000 0000 0080
00000440: 0500 0000 0000 0080 0500 0000 0000 0080
00000450: 0500 0000 0000 0000 0500 0000 0000 0000
00000460: 0500 0000 0000 0000 0500 0000 0000 0080
00000470: 0500 0000 0000 0080 0500 0000 0000 0080
00000480: 6b6a 7ea3 43b5 063f a1de f26c c294 023f
00000490: 3539 56f4 502c fd3e 2edf fc0c 2797 07bf
000004a0: 9378 c5da c98b 02bf b1fa 31ba 2bdb fdbe
000004b0: 41a8 be89 1eb6 b3be 7836 9e81 7429 c2be
000004c0: 2515 a606 e436 b0be 7afd 79e7 f642 00bf
000004d0: 6ad8 795a 1b05 febe 976f ef93 5e49 f3be
000004e0: 97c8 9455 2c0d f63e 1914 ad84 dc2e f73e
000004f0: 5e97 220b c50e ec3e a94f eeee dc1a 02bf
00000500: 600c 17a2 7953 fdbe 0404 9d0f c148 f6be
00000510: ebbb 35a3 bade cdbe 4064 190e eac9 e5be
00000520: ddca 733c a8ab b63e edbf d509 4369 b2be
00000530: 6fe1 4a05 b141 ddbe d641 6b79 e3c2 b23e
00000540: b14a 8d24 70d5 e6be 787b 4daa 8d8a f0be
00000550: 0eee 79c6 1813 dcbe 037a 84f6 1697 fb3e
00000560: 7064 b7ea 4400 f33e 08af 921c 4fcc f13e
00000570: 87cc 3242 3302 643e 63d9 4954 908b b0be
00000580: 9906 2a52 a735 963e ebc6 0ecd d4c9 e2be
00000590: 6ec9 5dba 2173 d0be a5dd f49c c3b9 e2be
000005a0: c0f5 aacd 9f3d dc3e 3d0b 3e19 c194 eb3e
000005b0: cf98 e41e de8e 90be f0a0 4a12 f0d0 dcbe
000005c0: c9ef ef0e 1f7c e9be 3757 b4ad a3b3 c0be
000005d0: 561a 1335 a9ae e83e 50b7 8ed7 4f5c dc3e
000005e0: 6de6 f9a4 339d e43e 3ac2 40a2 4da8 b9be
000005f0: ff10 2d0f 4acf d3be 0c69 d3ea 42da be3e
00000600: 5212 9c10 cd13 d83e e639 80b8 ebc6 a9be
00000610: d107 e03e 4d79 dfbe db45 5360 0247 d33e
00000620: a597 49d1 73a3 e73e 69eb 1d1e b1d3 f33e
00000630: 11da c352 3e00 acbe 312a 8ae4 5b6b b8be
00000640: db01 89df 3451 7a3e bfaa 06a6 0da6 cbbe
00000650: 21eb 87f6 87eb 9c3e 11fb 97f9 e7a6 d03e
00000660: ea5b bf8d 2251 f63e ee93 0082 703f f33e
00000670: 2884 fba6 c9c6 f23e d979 5cfb 2610 c9be
00000680: 7616 a496 955e ba3e 180a ca45 5a51 dc3e
00000690: 6609 e424 f064 dc3e 5d21 69f1 807c d83e
000006a0: 4db2 dfc8 90b4 c83e c63c cf1d 75c4 a8be
000006b0: 9ed5 5a97 c963 bbbe c984 1adb 8e94 cebe
000006c0: 58bf 8f71 a54a f2be 6fea 9177 5359 f1be
000006d0: 4bfb 3406 2548 f1be 22e3 0561 5d93 d3be
000006e0: f8b9 34d1 e8c9 debe 8f96 a8eb fe89 f0be
000006f0: ec23 cbda 892e bbbe b691 d1d8 40ac c2be
00000700: 14dd 8320 3ee1 acbe f85d 4657 fd57 f7be
00000710: d26a c4b4 b0ad f4be 2cf1 9909 9712 f2be
00000720: 6441 4620 7b4d eabe 1ac8 4ee4 8e7b eabe
00000730: 44a3 246a 8b59 e0be 81fa 635f c186 d63e
00000740: dfde a488 8b31 d73e bcf8 b693 b47d d03e
00000750: 7e2a 7b7c fd1a eb3e d450 a049 2fed e43e
00000760: 6913 152e cea9 df3e abbb 1e3c 34f4 e93e
00000770: a7fd 53af 0cd9 e83e b0ed 16f7 79c1 e33e
00000780: 0000 0000 0000 0000 0000 0000 0000 0000
00000790: 0000 0000 0000 0000 0000 0000 0000 0000
000007a0: 0000 0000 0000 0000 0000 0000 0000 0000
000007b0: 0000 0000 0000 0000 0000 0000 0000 0000
000007c0: 0000 0000 0000 0000 0000 0000 0000 0000
000007d0: 0000 0000 0000 0000 0000 0000 0000 0000
000007e0: 0000 0000 0000 0000 0000 0000 0000 0000
000007f0: 0000 0000 0000 0000 0000 0000 0000 0000
