lightning_logs/version_30/checkpoints/epoch=869.ckpt (torch_old, 784769 bytes, 102 tensors)

exp_avg f8 [8, 2, 3]
00000000: e7f9 4bba 9419 4b3f 49d0 4d8e 6dd2 423f
00000010: 3960 851e 26a2 403f b1ec 6245 1eda 3bbf
00000020: 34a2 2a7f 034c 38bf 628c 27e0 d7ce 34bf
00000030: eab9 dbc7 9b4b 50bf 97e4 4dfb f3e2 53bf
00000040: 8641 15f8 9749 58bf d802 6479 5c9a 51bf
00000050: 4e22 a0c4 9b0b 54bf c3f5 9c42 48da 56bf
00000060: 23a7 c7af 49d2 6abf 03d0 381c b600 6bbf
00000070: 2b35 d58f a776 6ebf e960 8b4f e102 51bf
00000080: ab6d f63d bb4c 55bf 1e52 03d9 5865 5abf
00000090: fe9d 816a 11a7 563f b33f 3b53 fa57 513f
000000a0: 201d 5f40 a34a 4d3f 0853 d03f 0473 47bf
000000b0: e32e 7bfa cd36 47bf 1adb 432e 3473 47bf
000000c0: 24f4 457e ed9a 55bf 55f5 e022 358b 51bf
000000d0: 90bc 8c16 6be4 46bf c889 875b 95f2 593f
000000e0: 42cc 0e25 53f9 5d3f 73f9 7cb4 a94d 613f
000000f0: eab6 5917 ccf8 64bf 0f86 fd6b 40a2 63bf
00000100: ec7a cd9b c622 64bf 994a 5543 b913 373f
00000110: 7660 4b0a 9991 3e3f 073f 0359 cc80 423f
00000120: 942d f77c e28c 613f 554d fa53 7b7b 613f
00000130: 0d4d f44f 2088 603f fcc0 0da9 d637 41bf
00000140: 666f 5d0c b3aa 40bf 9e95 0c24 ab69 40bf
00000150: 8910 dffb cb86 013f f156 39cf 62c9 223f
00000160: 85f3 f352 025e 253f a187 50d6 a074 fe3e
00000170: 5213 3174 d3e8 0f3f f964 156e 39af 183f
0.0008270240983561634 0.0005744013729853749 0.0005076109055535189 -0.0004249881652744299 -0.00037074170465215277 -0.0003175046005294333 -0.0009945889755119627 -0.0012137777932521904
-0.0014823898385039904 -0.0010744002407251842 -0.0012234707996886698 -0.00139481598530665 -0.0032741011802856087 -0.003296237644258683 -0.003718688267929556 -0.0010382843303685058
-0.0013000324760018371 -0.001611077084864416 0.0013826055601614535 0.0010585732060697072 0.0008939072729327348 -0.000715615343895055 -0.0007084375146972601 -0.0007156376637159373
-0.0013186759252612557 -0.0010707873257297014 -0.0006986163035430804 0.001583715302438381 0.0018294631920354886 0.0021122278739362176 -0.002560042014741683 -0.0023967035521514977
-0.0024579886507319817 0.0003521277715964693 0.0004664419778186499 0.0005646703521282333 0.0021423743816961303 0.0021340759993308347 0.0020180350399045034 -0.000525455298072713
-0.0005086302050858304 -0.000500877919055998 3.3429241269839856e-05 0.00014333087129852305 0.00016301897401396425 2.9044703655618465e-05 6.086249643336726e-05 9.416378045070177e-05

exp_avg_sq f8 [8, 2, 3]
00000000: 51ba a1c7 547f 593f 9ee7 f688 c1d5 573f
00000010: abee 9dee 9def 543f 8a77 dc81 2d53 3a3f
00000020: d5c3 3b1c e10d 3c3f bb9a f9e8 370d 3e3f
00000030: d262 fd12 42eb 443f e676 f246 19c9 433f
00000040: 7716 eaa8 e0a1 4d3f d3eb 3d97 f9c7 783f
00000050: f759 5e8a f894 7d3f 9b88 97b7 b571 813f
00000060: d140 d993 0f31 8a3f 9455 fd57 6475 853f
00000070: 5a4c d14c 7d3f 7e3f d00e 410b 6053 973f
00000080: 27eb d05f ca26 9c3f 5ac9 d3fe e6c1 a03f
00000090: 0349 3970 d13e 513f 6c54 9ac0 949f 523f
000000a0: ae3a 5fa3 3f18 523f 98a9 dc53 16fe 443f
000000b0: 104c 2d62 2dd8 433f f523 cf37 333c 433f
000000c0: 89ff e544 0bd8 813f d9ad 2750 6b96 883f
000000d0: 024c 956f 766a 913f 3747 315e 3204 903f
000000e0: cd02 3cc8 3e07 933f 7929 23af b65d 963f
000000f0: b75e ddfd 1bd4 853f dce0 086e 3e71 883f
00000100: 8530 0b94 43e7 883f 2508 e314 c627 2d3f
00000110: 69ad 49cf 7c5d 283f c530 f343 b71e 243f
00000120: d757 260d beec 673f 5c18 43c4 6008 653f
00000130: dd88 0125 a3fc 623f ed8d 1626 4797 423f
00000140: 24ee 0b07 82d7 413f 3d6c 04e7 9aa8 413f
00000150: 3e78 8601 c728 4d3f 8efb 9e09 fd72 513f
00000160: c72c 7a26 3c16 533f 3632 1f73 6ad2 1e3f
00000170: 2d9d 81e9 83b3 213f f245 fe8c 3b2a 243f
0.001556237023148239 0.001454771994629379 0.001277832251132797 0.0004016862966283943 0.00042807336670508167 0.0004585515498320249 0.0006383965137316211 0.0006038068221589615
0.000904307076624546 0.006050085987108172 0.007222147809349703 0.008517665543824207 0.012788888644678672 0.010477813658932779 0.007384767011063687 0.0227789885395982
0.027491724107885276 0.03272935734448153 0.0010525746628400896 0.0011366799030032805 0.0011044141260644724 0.0006406411191382409 0.0006056043242587145 0.0005870103919899382
0.008712852516282303 0.012005651839863173 0.01700768524217367 0.01564100932984688 0.018582325908030484 0.02184186405137598 0.010658472714268325 0.011934745533935524
0.012159851031718691 0.00022243779171132838 0.00018589161449554116 0.00015350329520059082 0.0029205047550915175 0.0025674715016946025 0.0023177324692805605 0.0005673501402054228
0.0005444893741634632 0.0005388981208257548 0.0008898708065776596 0.0010650130338800442 0.0011649691968241159 0.00011757635800719525 0.0001350496793321802 0.0001538465207855801

exp_avg f8 [8]
00000000: b2f7 567d 54a0 933f 639f 07cd bf2e b0bf
00000010: a00b f784 0c11 bbbf 7a5d c110 cc44 84bf
00000020: d95d a818 09f4 be3f e072 7e5d 1d42 a83f
00000030: 526f 9d26 1503 73bf e62d f51d a4b9 813f
0.01916629805577203 -0.06321333652124177 -0.10572889562813126 -0.009896845113117381 0.12091118671411695 0.0473794151905389 -0.0046416116909674 0.00865486351417295

exp_avg_sq f8 [8]
00000000: fc06 82dd b385 fc3f 5207 7163 ab7f 4840
00000010: 62f0 71b1 e275 6940 0359 3273 805c 1840
00000020: 7760 6353 7bbc 6040 fb82 20e8 be7e f53f
00000030: f7e2 201e 338b 1940 a140 c1f2 e841 e43f
1.7826422360089387 48.99741786021208 203.68392250302992 6.090333747814159 133.89005441102537 1.343443781610573 6.385937186009634 0.6330456486994259

exp_avg f8 [8, 8, 3]
00000000: 5a34 8025 312c 49bb db8b d472 f8a7 49bb
00000010: a9ba 9f36 3427 4abb ad14 2144 3726 0e3b
00000020: d383 7cca 993d 083b 33dd 4ef4 ad6c 023b
00000030: 82f0 8162 729d 14bb 4ee6 d018 af02 14bb
00000040: 531d 77e3 2a4b 13bb 5a34 0774 57c4 4fbb
00000050: 1e83 3fdc 4df4 4fbb 102d 52c6 bc11 50bb
00000060: 96ce 9eee 506f d33a 90b2 23ab 567e d9ba
00000070: c23a 7842 c42f f2ba 6fc1 6db7 d04d 17bb
00000080: 24a7 bb80 0fc9 1ebb 3059 0ffd 1032 23bb
00000090: c8c0 e11f 477d 49bb 7165 f8c0 350c 4abb
000000a0: d32a b92a 759d 4abb 4ade cbca a74f 313b
000000b0: b38d ca4d 8e4f 303b 7798 54c1 cd90 2e3b
000000c0: 771e ab41 35d6 3b3f 8379 c9b2 d19f 383f
000000d0: fdb7 62c3 2ed9 383f e57c b33a bc10 62bf
000000e0: e432 0ff0 0ba8 60bf 077e bc5a 2ab2 5ebf
000000f0: 5b62 4428 cdb9 423f 1c9b 7ca9 ad41 473f
00000100: 2309 4213 ec34 4c3f c25a c9e0 39dd 653f
00000110: 9564 f18a 7c75 663f 2deb d710 af2d 673f
00000120: 4f6d 1e63 fbd0 5bbf e9f9 6965 02b2 5dbf
00000130: f6dd 2507 c899 5fbf 8ed1 f98a 0f46 72bf
00000140: e84e 6200 a9fe 71bf 3929 d42d 4aa9 71bf
00000150: c748 ae04 084d 193f fbe7 489b 2bbe 1e3f
00000160: 7f49 0dcd 1c37 283f ebc3 aac0 c6f2 6cbf
00000170: a636 96cc 4e2a 6dbf 047a 339c d52a 6dbf
00000180: d019 f09d d4e6 68bf 6d6c 2c29 5586 68bf
00000190: 6e8a 0bc9 9d62 68bf f3a4 9c74 3510 713f
000001a0: 3378 76a6 6ba0 703f 7e9b 50b1 7ca4 703f
000001b0: ef8e 6fd1 87c4 17bf 2d15 240b 7a45 01bf
000001c0: e5e8 ce23 cae4 04bf c956 c1b0 769d 76bf
000001d0: 4884 010e 12d9 76bf f057 c993 60c8 76bf
000001e0: 5861 7ab9 666a 593f a6f5 7da5 b049 583f
000001f0: 09f9 bc9b 136f 583f 1806 89da 1e08 793f
00000200: ed4b fff6 7e73 783f fd83 45d5 4b86 783f
00000210: 1af1 42b9 5d5d 5fbf 09af 57d7 cc9f 5fbf
00000220: 8022 120e 158f 5fbf 2c99 5254 857c 743f
00000230: 4837 83b4 c8a8 743f 644b a584 f0b2 743f
00000240: d2ed ddbf 3eb0 e3b9 5038 ab1d b2d2 e3b9
00000250: 52a8 f906 215b d5b9 5437 eed1 a579 a539
00000260: 303e c19b c48f a639 0494 d300 e8f8 c339
00000270: 9b7d 10a1 e31b d039 a6c8 a114 966e d039
00000280: f1f8 538d 8bf5 db39 a4c6 f584 ea51 d4b9
00000290: 3f52 33e1 693c d4b9 dd94 bac7 0a30 b9b9
000002a0: f97c cbb7 1c37 dab9 e2bb c215 c59c dab9
000002b0: 2d44 94b4 1881 c5b9 a40c 7ec0 9ec5 e0b9
000002c0: d780 9c1d a4ef e0b9 4907 01ee 0dc8 ddb9
000002d0: 0f74 5c39 e7c2 e1b9 eeb0 be9c 21db e1b9
000002e0: b376 37de ac92 ddb9 6f9a d188 fa32 d1b9
000002f0: 4de7 a007 e679 d1b9 46e8 346d 32f3 ae39
00000300: 0000 0000 0000 0000 0000 0000 0000 0000
00000310: 0000 0000 0000 0000 0000 0000 0000 0000
00000320: 0000 0000 0000 0000 0000 0000 0000 0000
00000330: 0000 0000 0000 0000 0000 0000 0000 0000
00000340: 0000 0000 0000 0000 0000 0000 0000 0000
00000350: 0000 0000 0000 0000 0000 0000 0000 0000
00000360: 0000 0000 0000 0000 0000 0000 0000 0000
00000370: 0000 0000 0000 0000 0000 0000 0000 0000
00000380: 0000 0000 0000 0000 0000 0000 0000 0000
00000390: 0000 0000 0000 0000 0000 0000 0000 0000
000003a0: 0000 0000 0000 0000 0000 0000 0000 0000
000003b0: 0000 0000 0000 0000 0000 0000 0000 0000
000003c0: 0000 0000 0000 0000 0000 0000 0000 0000
000003d0: 0000 0000 0000 0000 0000 0000 0000 0000
000003e0: 0000 0000 0000 0000 0000 0000 0000 0000
000003f0: 0000 0000 0000 0000 0000 0000 0000 0000
00000400: 0000 0000 0000 0000 0000 0000 0000 0000
00000410: 0000 0000 0000 0000 0000 0000 0000 0000
00000420: 0000 0000 0000 0000 0000 0000 0000 0000
00000430: 0000 0000 0000 0000 0000 0000 0000 0000
00000440: 0000 0000 0000 0000 0000 0000 0000 0000
00000450: 0000 0000 0000 0000 0000 0000 0000 0000
00000460: 0000 0000 0000 0000 0000 0000 0000 0000
00000470: 0000 0000 0000 0000 0000 0000 0000 0000
00000480: 4d1e aacc 9315 a5bb ea0d 6638 d717 253f
00000490: aeaa 0592 8ceb 213f fbb3 7132 38fc 7fbb
000004a0: efd1 3b60 5f8e 0fbf 09fb c8cc 29ae d3be
000004b0: e0f1 4163 7891 42bb c698 dc9d 0ce7 e43e
000004c0: 5632 2e3b 1e5f 0cbf 5f46 21a3 d7b6 a4bb
000004d0: 580e 6a28 6579 063f 0c25 c823 18c4 143f
000004e0: dc4d f923 1071 83bb ec44 d4e1 300e f53e
000004f0: e795 99aa 7aab 163f ad79 0b87 ee82 9dbb
00000500: 3628 bf40 d2b6 fb3e 7655 67ea f02e 203f
00000510: dcbc 2f19 b258 a6bb 61b2 384c 4156 203f
00000520: b030 e9c4 459b 203f 2211 303c f84c 70bb
00000530: 5a3a 5dfe 489e 143f 59c7 52b2 4d64 0c3f
00000540: bd4e cfdc 01b3 94bf 8f4d 5d82 46ac 94bf
00000550: 53a2 371b 14a7 94bf 4d50 fb77 8a5d 9c3f
00000560: 8451 bd83 e07c 9b3f a766 dd60 b292 9a3f
00000570: d41a 8f07 1aad 683f 9b81 77cd ba72 633f
00000580: 49df 1728 1815 5c3f 090e a43b fd44 a1bf
00000590: 6aea ee7f e57f a1bf bc6b 25a5 21bd a1bf
000005a0: 54de 7531 098c 763f 9b50 44d1 0980 783f
000005b0: f36f 23ec 667f 7a3f a10b c132 cd1c a23f
000005c0: 903a e6b4 97d5 a13f 4bd5 650e f689 a13f
000005d0: a883 2e68 6a91 8bbf d6ce 362f 483e 8cbf
000005e0: f40f f107 c1f6 8cbf f7ab b7a2 5f58 9e3f
000005f0: b292 394f 455e 9e3f ce55 6a1c 6762 9e3f
-4.1644614594980137e-23 -4.2444514556373256e-23 -4.3266741496527515e-23 3.1173625694241544e-24 2.5064221808066475e-24 1.9050516823973036e-24 -4.2630875875481105e-24 -4.1380711584136764e-24
-3.989827759506112e-24 -5.255402592127787e-23 -5.2863976492376284e-23 -5.31688097399357e-23 2.5118927326689765e-25 -3.294958934687224e-25 -9.40224585096611e-25 -4.81914722004161e-24
-6.366270019515199e-24 -7.939102388553791e-24 -4.216861963036728e-23 -4.309229697162002e-23 -4.4030938280914755e-23 1.4319451015527795e-23 1.3491948695383635e-23 1.2641652233424108e-23
0.0004247550984186397 0.00037573690022964945 0.000379156033328054 -0.002205245623926199 -0.0020332558783365696 -0.0018735326402249412 0.0005714656586262677 0.0007097337683930924
0.0008608010016504557 0.002668965380773742 0.00274156880145122 0.002829400945072355 -0.0016977744057616489 -0.0018124602699170994 -0.0019287541768714367 -0.004461346353867758
-0.004393253481015803 -0.004311837922850886 9.651528777812882e-05 0.00011727467683267372 0.00018474794935714395 -0.0035337335478620078 -0.003560212998030848 -0.003560464103073759
-0.003039756076307777 -0.0029937423036137585 -0.0029767114395878235 0.004165848551374684 0.004059238919039076 0.004063117104158629 -9.066657035777433e-05 -3.2942568752895126e-05
-3.98515880770266e-05 -0.00552126277405813 -0.0055781083356985575 -0.005562188391726494 0.0015512469453025837 0.0014824128211040426 0.0014913264739813711 0.006111259958346625
0.005969520527247402 0.005987449858680269 -0.001914350058583264 -0.0019301891710438743 -0.0019262033095250042 0.005001564805900121 0.005043777470019446 0.005053462528240658
-7.765727195465439e-30 -7.818806826299028e-30 -4.211722990142136e-30 5.2940421978174785e-31 5.561862273086884e-31 1.969419854801527e-30 3.1769286608636974e-30 3.2406361707954185e-30
5.513972194004435e-30 -4.007410387377143e-30 -3.9908454648707004e-30 -1.241847738255025e-30 -5.1700527626465436e-30 -5.2483669935729036e-30 -2.1204860413057472e-30 -6.615369254387678e-30
-6.680112782390712e-30 -5.873357876579089e-30 -7.005613650980163e-30 -7.042942917215348e-30 -5.83223607742133e-30 -3.391931370758398e-30 -3.446566077244338e-30 7.6297611584339505e-31
0.0 0.0 0.0 0.0 0.0 0.0 0.0 0.0
0.0 0.0 0.0 0.0 0.0 0.0 0.0 0.0
0.0 0.0 0.0 0.0 0.0 0.0 0.0 0.0
0.0 0.0 0.0 0.0 0.0 0.0 0.0 0.0
0.0 0.0 0.0 0.0 0.0 0.0 0.0 0.0
0.0 0.0 0.0 0.0 0.0 0.0 0.0 0.0
-2.232385665897766e-21 0.00016092779351249638 0.0001367196173405935 -4.23321027377369e-22 -6.0188565866345935e-05 -4.692155198214898e-06 -3.0718581602997496e-23 9.967105991725763e-06
-5.4114446718410314e-05 -2.193204184606773e-21 4.286613425555076e-05 7.921597802619892e-05 -5.146162576898067e-22 2.008002603754316e-05 8.64785785324656e-05 -1.5623232678016588e-21
2.643026895991098e-05 0.00012346926560151031 -2.366024285360499e-21 0.00012464091388277295 0.0001266977946720086 -2.157374754041246e-22 7.86525775684303e-05 5.4153081046405794e-05
-0.020214108564529754 -0.020188428599181626 -0.02016860405083982 0.02770058018980164 0.026843555489294527 0.02595022884574996 0.003012228812142007 0.0023740433205007966
0.0017140136627613203 -0.03372947075879657 -0.03417889773068768 -0.03464608326859017 0.005504642401653454 0.005981481885346219 0.006469156304060408 0.035375988431517465
0.03483270724529064 0.034255685098211495 -0.013460952095387516 -0.013790668431148328 -0.014142520956859507 0.0296339934410916 0.02965648933458693 0.02967225180562654

exp_avg_sq f8 [8, 8, 3]
00000000: 5c0a 3d6b 8771 943e 71ab 007e 8c0e 953e
00000010: 90c3 729d afb3 953e 2c60 9ed3 31ab 733e
00000020: 9cfc cc27 0772 723e 126d b21c 1b44 713e
00000030: 56f0 f11b df7f 2e3e 9e13 0812 740e 303e
00000040: 1d27 0990 2ee2 303e 4043 c186 6a69 a53e
00000050: 8fb2 46fc 98b1 a53e 0b2f b2cf 43fa a53e
00000060: e8c9 385d fc20 4d3e be21 747a 9b73 4d3e
00000070: d779 f48c bce0 4d3e f164 22db 6395 833e
00000080: e107 5af8 97dc 823e 44ea 490b 8836 823e
00000090: 76d8 acc2 3b7c 923e 79a1 b391 8f47 933e
000000a0: ded7 3530 6e1b 943e a858 fafb 732b 893e
000000b0: 2d19 7464 4e80 883e f7f7 ec38 60d4 873e
000000c0: 8f27 7e34 5b94 b13f b374 9d7b 4992 b13f
000000d0: 230e a413 3993 b13f 33af 1bcd 34ef c53f
000000e0: d346 f5e1 3643 c53f 0c99 efdf e491 c43f
000000f0: 99d5 9cd0 884a 603f 84ba e4e0 7e4f 5a3f
00000100: 3944 36a2 fbdd 553f 5637 ba31 597e cb3f
00000110: 1fad c8d5 b1dc cb3f 6159 1b3c 5b42 cc3f
00000120: 6b79 0a7c 4ee7 853f ed65 dc5a 3d98 873f
00000130: 1eac b49b f036 893f 1d73 7f75 cb27 d43f
00000140: 58a9 a677 88e8 d33f 8067 a9de 559b d33f
00000150: 9cb3 aaff f384 983f 91ba 6a8d 344c 993f
00000160: 96ee 2541 f029 9a3f 3ee0 ca9e 6361 ca3f
00000170: 6859 9f7f d961 ca3f 2b40 8359 d65b ca3f
00000180: 4675 2831 76cc cd3f 41db 332e ec24 ce3f
00000190: 7da1 c965 f26b ce3f f483 506c ef6f da3f
000001a0: 8502 70ad a1bb d93f e7d6 7666 c6df d83f
000001b0: e0e5 4cc1 c2b2 6e3f f464 b73b 8be3 663f
000001c0: 99c1 bb65 b6e2 613f 42bf 9bf9 0d87 e43f
000001d0: 6d31 5e99 10bc e43f 48b3 e04a 6f01 e53f
000001e0: e87e 1480 fbe6 933f c843 eae6 d49b 953f
000001f0: 2cf4 ec9e ce8d 963f f891 8237 40af e63f
00000200: 2b65 5d1b 795c e63f 1b42 f448 10d6 e53f
00000210: e350 a23d 64ca b93f 546d a8b3 bfba ba3f
00000220: efe0 0405 aebd bb3f 8352 3141 a03d e03f
00000230: 1362 6ef3 181c e03f 0b44 1f28 e6ff df3f
00000240: 0a36 a918 ee21 ec3d 7f72 2ffc a0c0 ec3d
00000250: 1708 203a 97c1 de3d 6246 b8fa e4a5 903d
00000260: 5b73 05c5 1bd5 af3d cd50 0c19 faef a83d
00000270: 0c04 4085 d1e8 c43d 90de 01fd 0032 d23d
00000280: 7925 ca67 8506 e53d 404d cc04 59da c03d
00000290: 03aa ddbf f07c c53d d209 d4de b31a a23d
000002a0: 599d 881a c824 d93d d39b 904c 10ae db3d
000002b0: fe76 e177 e0f6 c33d 6afc d587 9904 d63d
000002c0: f183 5aeb a345 d63d 55f0 7b2d 0933 da3d
000002d0: 71ca d86f 4414 e53d ca4a 9e06 3e7b e43d
000002e0: 4d27 3f96 8138 e63d cd63 c27e ffa1 c13d
000002f0: 12f5 7a93 24e9 d23d dfed 11be 928a 943d
00000300: 0000 0000 0000 0000 0000 0000 0000 0000
00000310: 0000 0000 0000 0000 0000 0000 0000 0000
00000320: 0000 0000 0000 0000 0000 0000 0000 0000
00000330: 0000 0000 0000 0000 0000 0000 0000 0000
00000340: 0000 0000 0000 0000 0000 0000 0000 0000
00000350: 0000 0000 0000 0000 0000 0000 0000 0000
00000360: 0000 0000 0000 0000 0000 0000 0000 0000
00000370: 0000 0000 0000 0000 0000 0000 0000 0000
00000380: 0000 0000 0000 0000 0000 0000 0000 0000
00000390: 0000 0000 0000 0000 0000 0000 0000 0000
000003a0: 0000 0000 0000 0000 0000 0000 0000 0000
000003b0: 0000 0000 0000 0000 0000 0000 0000 0000
000003c0: 0000 0000 0000 0000 0000 0000 0000 0000
000003d0: 0000 0000 0000 0000 0000 0000 0000 0000
000003e0: 0000 0000 0000 0000 0000 0000 0000 0000
000003f0: 0000 0000 0000 0000 0000 0000 0000 0000
00000400: 0000 0000 0000 0000 0000 0000 0000 0000
00000410: 0000 0000 0000 0000 0000 0000 0000 0000
00000420: 0000 0000 0000 0000 0000 0000 0000 0000
00000430: 0000 0000 0000 0000 0000 0000 0000 0000
00000440: 0000 0000 0000 0000 0000 0000 0000 0000
00000450: 0000 0000 0000 0000 0000 0000 0000 0000
00000460: 0000 0000 0000 0000 0000 0000 0000 0000
00000470: 0000 0000 0000 0000 0000 0000 0000 0000
00000480: bb1c 6d5d cffe 303e 5d7a cbd9 8e32 f13e
00000490: d537 9387 5ebd e83e a738 251a 027c e83d
000004a0: f226 7264 8e7b c43e f58a 9e82 e134 713e
000004b0: 5bfe 8279 bbad c93d fc7f b3c7 249d 663e
000004c0: e3ad 6f0d 30de c23e ebdc 546c f118 303e
000004d0: 71cb 35d3 6a47 af3e f2a7 f903 62db ca3e
000004e0: 10bd a7ff 4b55 f23d 9148 8401 e609 963e
000004f0: 0c60 18c8 26bf d63e f5b6 d128 00d8 1f3e
00000500: a390 1426 b0d2 973e 0f06 d31e 917f e23e
00000510: 58f7 4e73 2be2 323e 6e13 1756 fb5e e43e
00000520: 3015 0377 7f75 e43e d13f 7320 6cec dc3d
00000530: c2a9 977c 802b d13e 482d e0c0 e667 c13e
00000540: ca02 45db 44ee fd3f 7211 bb28 4830 fe3f
00000550: aff6 3f2c d279 fe3f 4b4b 4731 a091 0240
00000560: 3841 f248 f6ee 0140 41db 5938 ce4d 0140
00000570: 8958 7c93 9c9f 9e3f 784a 1f9c 898a 993f
00000580: c914 2074 2105 953f 619c 2170 e051 1140
00000590: 0c99 c65a 6e89 1140 f80d 9b59 b1c1 1140
000005a0: c323 42af e5e5 af3f d2a0 f559 59dc b03f
000005b0: b420 d66b 13b7 b13f 2137 8aeb b4c9 0b40
000005c0: 8442 c51c 4c0a 0b40 094e 650c c345 0a40
000005d0: b4b3 e852 7edf ed3f d9bd 7b59 f7d5 ee3f
000005e0: d0d5 0595 7fda ef3f 0ea2 2c0e 3bed 0540
000005f0: 7c92 3759 80c1 0540 19e0 35e8 6b91 0540
3.0463148025322735e-07 3.137712365509557e-07 3.233834866096932e-07 7.327172549113192e-08 6.871455044981756e-08 6.43210064536996e-08 3.5506088898537117e-09 3.7384355893114914e-09
3.9310015247894385e-09 6.381208215254695e-07 6.465238518347897e-07 6.549834376131086e-07 1.3564178147957596e-08 1.37144658533439e-08 1.391297069094866e-08 1.4590885439174206e-07
1.4053057044790883e-07 1.3569752401242623e-07 2.754522393956708e-07 2.8728745045264026e-07 2.996198846452859e-07 1.8752916551974654e-07 1.8254813680829558e-07 1.7754430500256763e-07
0.0686699870258549 0.06863841312356804 0.06865269402992928 0.17136249556585312 0.16611372025595603 0.16070233282443558 0.001988665787304011 0.0016058672950511063
0.0013346631393214138 0.2147933476266483 0.21767256678263266 0.22077503619102415 0.010695088539532013 0.011520842872005022 0.012311820747148924 0.314928879493708
0.3110676926104552 0.30635592216787444 0.023944675902999188 0.024704762584117083 0.02555060765869984 0.20609708074130312 0.2061111329227956 0.205927652079937
0.23280217552466292 0.23550178771957955 0.23766927690600062 0.4130819852599068 0.4020771211362802 0.38865814214965017 0.0037473491487644978 0.0027940482520817326
0.0021833002518791386 0.6414861560024081 0.6479571338145839 0.6564251387077116 0.01943581551779419 0.021102263063372623 0.022025326204346538 0.7088929256611314
0.698788217017101 0.6823808121571945 0.10074450020539731 0.10441206108264584 0.10836303350959374 0.5075227044386142 0.5034298662677109 0.49999383848359064
2.0469116361132093e-10 2.0920165434412525e-10 1.1189045396049832e-10 3.785322678134502e-12 1.4475724574680852e-11 1.1340221108298101e-11 3.803406258018487e-11 6.619421612562429e-11
1.5298045113224067e-10 3.065528438712654e-11 3.908653260709316e-11 8.232885695562052e-12 9.147216893085474e-11 1.0069902129270244e-10 3.6314964043772936e-11 8.010089983572872e-11
8.102518208318895e-11 9.531271203802072e-11 1.533711421088618e-10 1.4902190879660342e-10 1.6167707027627223e-10 3.207388507990998e-11 6.879677805742999e-11 4.6705512459675664e-12
0.0 0.0 0.0 0.0 0.0 0.0 0.0 0.0
0.0 0.0 0.0 0.0 0.0 0.0 0.0 0.0
0.0 0.0 0.0 0.0 0.0 0.0 0.0 0.0
0.0 0.0 0.0 0.0 0.0 0.0 0.0 0.0
0.0 0.0 0.0 0.0 0.0 0.0 0.0 0.0
0.0 0.0 0.0 0.0 0.0 0.0 0.0 0.0
3.9570386609930014e-09 1.6400806645994855e-05 1.1796819523370649e-05 1.7814750809313517e-10 2.4417211395608743e-06 6.40994534382839e-08 4.670917748847573e-11 4.2121563981331227e-08
2.249231424658028e-06 3.747975878702569e-09 9.321860602720298e-07 3.201599639447884e-06 2.667830398047048e-10 3.2840171250535046e-07 5.423232438704638e-06 1.8535503438332697e-09
3.5499036783933134e-07 8.820680671542254e-06 4.396651755284887e-09 9.71366052028032e-06 9.755600075665201e-06 1.0522317055220245e-10 4.093630147287315e-06 2.074940772983005e-06
1.8706711354463317 1.886787566284593 1.9047414520750114 2.321106324184631 2.2416806887560163 2.16299098991604 0.02990574503117974 0.024942541269249635
0.020527384484030606 4.329957725573963 4.384210031863642 4.4391530991447254 0.0623008514822412 0.06586225935245985 0.06919976599431515 3.4734896089129426
3.380027985353367 3.284063431588724 0.9335319155994655 0.963618922016333 0.9954221640206757 2.7408352954264563 2.719483086594037 2.6960065976563894

exp_avg f8 [8]
00000000: 9914 86d4 f572 643b ac94 41a9 185a 83bf
00000010: abbb 75d5 a1bd 933f 787c 8429 9e78 eb39
00000020: 0000 0000 0000 0000 0000 0000 0000 0000
00000030: cd81 a725 769c 29bf 8672 86b2 db91 be3f
1.3532055144453193e-22 -0.009449188866890466 0.01927807679515651 1.083546339912718e-29 0.0 0.0 -0.0001953977797049103 0.11941311939740204

exp_avg_sq f8 [8]
00000000: 87c4 268e cae7 d53e 6666 c4a2 5d85 0640
00000010: 327f 27d5 3d9b 1f40 1f6c b465 9c26 ff3d
00000020: 0000 0000 0000 0000 0000 0000 0000 0000
00000030: c26f 4782 9699 f93e 6324 b9e2 5980 4940
5.222662567681429e-06 2.8151200023829004 7.901603060279557 4.5330414916928165e-10 0.0 0.0 2.441401751861173e-05 51.00274309196609

exp_avg f8 [8, 8, 3]
00000000: 0500 0000 0000 0080 8296 9d71 0ba6 84ae
00000010: 958a 123e 4f58 81ae 0500 0000 0000 0000
00000020: 73ee 3f53 b881 6e2e bb22 5b2a b211 3b2e
00000030: 0500 0000 0000 0000 8ad5 fa8f 82da 42ae
00000040: 4b32 ead1 2db7 6e2e 0500 0000 0000 0080
00000050: fe75 acfd ecee 61ae e57b 0510 7aab 70ae
00000060: 0500 0000 0000 0080 8649 cc66 d108 57ae
00000070: 010e 2f96 b1f4 77ae 0500 0000 0000 0000
00000080: 937a d3ae 074e 54ae dd38 8148 fbeb 7cae
00000090: 0500 0000 0000 0080 32b2 37b9 0cc6 7fae
000000a0: 9e9c 1b41 bb88 7fae 0500 0000 0000 0000
000000b0: 5392 f9bf f4aa 74ae c3f4 d354 7b9b 6dae
000000c0: c90f 858e 90cd 1494 5de6 bcc7 2023 1594
000000d0: 6a08 9905 d97b 1594 ebd4 a144 0cb2 ee93
000000e0: 130b cf7f f866 ee93 239e 2b6b 6ced ed93
000000f0: f8b1 f285 f38f e613 6d15 ac2f 9907 e913
00000100: a8a6 4e5d ee8f eb13 776e 0487 dc91 0a94
00000110: ca2f 55d6 4359 0a94 0af9 737e 4515 0a94
00000120: 5d33 87c1 3ee3 0194 3234 2c73 b0cf 0294
00000130: fd97 1b59 25b7 0394 0274 7358 202e 0994
00000140: 6c99 77ee befa 0994 fd68 ef03 e3c5 0a94
00000150: 19be 143b ccec 1394 9f4c 8e00 0b2c 1494
00000160: 957e 9085 016e 1494 e61f 6462 a0d6 f193
00000170: 7954 832d 9d57 f393 9c16 fd5b b9e2 f493
00000180: 0500 0000 0000 0080 0500 0000 0000 0080
00000190: 0500 0000 0000 0080 0500 0000 0000 0000
000001a0: 0500 0000 0000 0000 0500 0000 0000 0000
000001b0: 0500 0000 0000 0000 0500 0000 0000 0000
000001c0: 0500 0000 0000 0000 0500 0000 0000 0080
000001d0: 0500 0000 0000 0080 0500 0000 0000 0080
000001e0: 0500 0000 0000 0080 0500 0000 0000 0080
000001f0: 0500 0000 0000 0080 0500 0000 0000 0000
00000200: 0500 0000 0000 0000 0500 0000 0000 0000
00000210: 0500 0000 0000 0080 0500 0000 0000 0080
00000220: 0500 0000 0000 0080 0500 0000 0000 0000
00000230: 0500 0000 0000 0000 0500 0000 0000 0000
00000240: 0509 3052 f584 2c3f 195d b641 55e5 2c3f
00000250: babe 3102 8b3f 2d3f 97be adc6 26c5 053f
00000260: 6bce c66d cb9c 083f 795c e9f6 c36a 0c3f
00000270: 67ab 4211 9e52 193f c720 6d84 b43f 193f
00000280: 4619 dd6a e354 1a3f c6e5 2fb9 4229 373f
00000290: 1661 1c1f 6f44 373f 9bd0 344e 206c 373f
000002a0: e406 a8c0 835a 13bf 3246 f3ed 2d3f 13bf
000002b0: e58e ca53 95df 12bf f091 b43d 8b00 f83e
000002c0: 7e13 9292 f3c1 013f 6ee5 eb48 bef0 053f
000002d0: fc7e ee1f a199 303f f9d9 d949 0f02 313f
000002e0: 0cbe c440 6e3c 313f 66cb 217b 2022 20bf
000002f0: 78a6 213d 9095 1fbf dc36 ced2 890b 1ebf
00000300: 8b5b 6dee 7fbf 2bbf 383f 750b b2db e13e
00000310: 5404 2715 461f fbbe 96a1 f8e6 f694 0c3f
00000320: 64bf 1b54 fc1f fcbe 44fb 5e0c f421 0b3f
00000330: 2940 4ecd 240f 213f 8ace c1f9 2816 233f
00000340: 29b8 28ca f47d 0f3f bb25 1f53 4912 11bf
00000350: 2e41 450f c4ea d5be 5d86 e66a 151e 083f
00000360: c39a 1912 eb21 28bf 3e3c cba9 aac8 24bf
00000370: e67c 9296 1f56 12bf 4be2 db2e 300d 28bf
00000380: 8fee edba 165f 23bf 78bc 3538 1dfd edbe
00000390: cddd 3232 4375 26bf aa3d 6346 aa9d aabe
000003a0: a34f 2f7d 9c58 c03e 5233 586a 260c 1fbf
000003b0: c62a 9fe3 1baf e7be b15c 6f4a b32c 08bf
000003c0: 93e9 d772 72b2 3abf 90eb daee 767f 3ebf
000003d0: d2a7 91c2 30d2 3fbf ed35 ee1c 5a48 58bf
000003e0: 7a8b cd0e 20fe 57bf 2cba 56dc b61f 58bf
000003f0: 1b84 b4b5 4e39 1cbf a589 9110 8e8d 16bf
00000400: dc3c d445 bd43 0bbf ca63 6fe9 61b1 313f
00000410: e2a2 2203 3446 313f bab9 fc87 24d8 303f
00000420: 31c2 ff38 ae0f 44bf 2afa b5f9 f23d 45bf
00000430: 939b ff99 dfa5 46bf 3004 5662 c048 65bf
00000440: df44 09ff 9b9c 65bf f2d1 915c 9a0e 66bf
00000450: 9ead e4bd 7c35 4abf 3d96 1be5 a0a7 4bbf
00000460: e58b 177a 084e 4cbf 36d5 7788 29d8 58bf
00000470: e628 abf6 f884 59bf e708 17a4 b1d7 59bf
00000480: b3dd 4fee f240 3d3f 1348 635f 654e 423f
00000490: 6ea2 017a 98d0 413f 8ff6 3886 e4bb 32bf
000004a0: 57db 9c49 6157 32bf 636b 05e5 b073 2abf
000004b0: 71d5 31c3 0f5f 313f 929d 4217 f4b2 323f
000004c0: a9ce 179d a679 313f a2a6 bb40 58ed 503f
000004d0: 4edf f528 c5d8 513f 0813 f5b2 c194 523f
000004e0: fa57 af25 0f2c 3cbf 7b80 3303 ea97 3bbf
000004f0: 667d 5010 577a 39bf 011d bcb4 2d1c 47bf
00000500: 28a0 6a27 74e0 44bf a56b 30bd 94a6 41bf
00000510: 5955 f53e f2e2 3c3f 075f 7668 b8fd 413f
00000520: dda8 34c3 bf9c 423f dc2b b7dd 8271 49bf
00000530: 8c19 a2b9 f0ab 47bf f941 b52d 4f15 48bf
00000540: 5bc3 cef4 8e27 059b 3096 c315 3880 059b
00000550: 8727 55b5 05c8 059b 9d56 f4c4 fa5e d49a
00000560: 43f3 e568 ba9f d39a b4ac 6553 711c d39a
00000570: ab4d d61c b977 e31a 9c83 7748 d992 e41a
00000580: 8a4a 5963 31db e51a b328 3eb9 5067 f99a
00000590: be4d 4f21 be43 f99a 2b94 cd31 fc15 f99a
000005a0: ddac 58f5 2ebb f59a a973 d061 a58d f69a
000005b0: 42e2 f30c ec66 f79a a01d 951b fe5e fd9a
000005c0: b5a9 2a1e c610 fe9a 76b1 036c 1fcf fe9a
000005d0: e5d3 4730 b4de 039b 14e7 16f9 dd1d 049b
000005e0: 8aaa 4dba 6e52 049b 5caf 7de6 c4a1 ea9a
000005f0: fb33 6bdf 0515 ec9a a28c c656 015d ed9a
-2.5e-323 -1.3286240002946789e-84 -1.1160522010179425e-84 2.5e-323 4.9073466262286046e-85 5.4429640236562045e-86 2.5e-323 -7.582012399239341e-86
4.94093831273913e-85 -2.5e-323 -2.884772298002388e-85 -5.363057281636796e-85 -2.5e-323 -1.8526739575202253e-85 -7.707127438566677e-85 2.5e-323
-1.633127370323757e-85 -9.304790417263307e-85 -2.5e-323 -1.0222287420043991e-84 -1.0145227076677946e-84 2.5e-323 -6.649292234588892e-85 -4.7626732023916495e-85
-6.179434868647424e-212 -6.27871697737827e-212 -6.381661473136964e-212 -1.1397452264801384e-212 -1.1288558928593269e-212 -1.1112264725668526e-212 8.377542291814208e-213 9.29369449417242e-213
1.0234047796605817e-212 -3.946216250478598e-212 -3.9133808543121537e-212 -3.8739332458291916e-212 -2.6567273915441626e-212 -2.793904490091792e-212 -2.928188014862816e-212 -3.7398304561163606e-212
-3.858543945251609e-212 -3.9763996434056357e-212 -5.918630147882437e-212 -5.992015717774006e-212 -6.068554804899345e-212 -1.324703236098778e-212 -1.4363817701411395e-212 -1.5509967067802237e-212
-2.5e-323 -2.5e-323 -2.5e-323 2.5e-323 2.5e-323 2.5e-323 2.5e-323 2.5e-323
2.5e-323 -2.5e-323 -2.5e-323 -2.5e-323 -2.5e-323 -2.5e-323 -2.5e-323 2.5e-323
2.5e-323 2.5e-323 -2.5e-323 -2.5e-323 -2.5e-323 2.5e-323 2.5e-323 2.5e-323
0.00021758551255863387 0.00022045770388665826 0.00022314617044426837 4.152321419936577e-05 4.694457831835589e-05 5.420122657955827e-05 9.659852759351177e-05 9.631671228505215e-05
0.00010044706388354527 0.0003534114741224583 0.0003550311367788312 0.00035739697178206194 -7.382802156288452e-05 -7.342069465046048e-05 -7.1996201720877e-05 2.2890209817509903e-05
3.386997770696893e-05 4.1847998650322275e-05 0.0002532976504259069 0.00025952218297878267 0.0002630013630264556 -0.0001230873727454354 -0.00012048428405511148 -0.0001146128531230544
-0.00021170078908979944 8.515446423245859e-06 -2.5865710378662345e-05 5.451563344777419e-05 -2.682203672227326e-05 5.1751384986689744e-05 0.00013015102618085917 0.00014561891737551277
6.006625450925868e-05 -6.512234247604044e-05 -5.225432904446248e-06 4.6000507939025706e-05 -0.0001841163112203584 -0.0001585682229205704 -6.994788931756791e-05 -0.00018349850818545824
-0.00014779236286332042 -1.4299739410998514e-05 -0.0001713413740611472 -7.932150196901583e-07 1.9486114779341e-06 -0.00011843666523976323 -1.1293420460042012e-05 -4.610941078169709e-05
-0.000407364789537867 -0.00046536115301492546 -0.000485550789170672 -0.0014820938119756114 -0.0014643967690168556 -0.0014724050282485341 -0.00010766547113806627 -8.603267282717446e-05
-5.200311054853201e-05 0.00026997223306818015 0.00026358384924178417 0.000257023733854302 -0.0006122208305879337 -0.0006482540515405134 -0.0006911603741145293 -0.0025981671812478555
-0.0026381537248104515 -0.0026925101161003823 -0.0007998332110096711 -0.0008439574832805396 -0.0008637944594592743 -0.0015163808437795418 -0.001557582024065024 -0.001577304341808411
0.00044637614183736933 0.0005586619361344101 0.0005436653627955543 -0.0002858574791594148 -0.0002798664587432739 -0.00020181211813049678 0.00026506552530432883 0.00028532466172711505
0.0002666503688424174 0.00103314989513096 0.0010892796888963443 0.0011340991585068756 -0.0004298722248540218 -0.0004210420913306545 -0.0003887617643289681 -0.0007052634404950687
-0.00063710853176691 -0.0005386568321939968 0.0004407731457452733 0.0005490446500741882 0.0005680023518029005 -0.000776471042109757 -0.0007224011817619654 -0.0007349621404647003
-1.6313827280171514e-178 -1.658090863476618e-178 -1.679720863075986e-178 -1.963700446330311e-179 -1.8916847339343918e-179 -1.842249187576975e-179 3.753241653710029e-179 3.9664635806411796e-179
4.2137395538357015e-179 -9.795292996597162e-179 -9.741713503064218e-179 -9.672793468795717e-179 -8.379266415020661e-179 -8.696265154233148e-179 -9.023526320714678e-179 -1.1325106032803358e-178
-1.1592880195955895e-178 -1.1879583608910107e-178 -1.532318585526744e-178 -1.5513458729600436e-178 -1.5671806876925934e-178 -5.134461653444475e-179 -5.414052873321636e-179 -5.66105632208732e-179

exp_avg_sq f8 [8, 8, 3]
00000000: 59c6 6079 6fda 6d3d 8694 e8b9 0152 423e
00000010: 9e48 3c79 19c0 393e 7efd 6da3 2d2d 6a3d
00000020: 0a49 d646 e59d 133e 02ae 9657 6eac a43d
00000030: 6f13 30c4 4f87 483d aff8 c4b9 e3dd c03d
00000040: e8f4 346e c29f 133e c056 3ec9 e819 693d
00000050: 52a7 7834 4f98 fc3d c319 bff2 f0b1 183e
00000060: 4f19 9285 a7f5 323d c4f3 3786 db51 e53d
00000070: afe3 710f a1f3 273e 2f21 cb74 fdde 703d
00000080: 228e 53f1 4ff2 e13d 338b 8392 9e2b 323e
00000090: 2390 ae5d bc98 5c3d e802 3f53 00b6 353e
000000a0: 4696 c266 746e 353e 5084 3bfe b54b 643d
000000b0: a41c 1fe9 6b63 223e f7ef 6413 ccc4 123e
000000c0: 0590 be8e f1dd 323e 50fc bd2e a353 333e
000000d0: 35ef 63c3 5fd8 333e 00d5 28bc 9963 eb3d
000000e0: 6963 9cd8 45e8 eb3d c527 cf28 ecac ec3d
000000f0: 9f94 2607 dce1 f63d b743 ed86 42a6 f73d
00000100: 343b 5994 4bb5 f83d 01e7 e4f4 2c0c 1b3e
00000110: fddc ed32 819b 1a3e 5054 2dd6 1337 1a3e
00000120: 5f9d 1e4a ddc0 103e ee87 b488 1caa 113e
00000130: ccab cb3e fc84 123e 1d20 94fa 4fc6 123e
00000140: b503 bc4d 9dd0 133e d3b3 d256 bdec 143e
00000150: a233 eaee 982a 2f3e 69de e6c3 bfd6 2f3e
00000160: 65a2 c249 6c47 303e 9f95 19b6 4405 ea3d
00000170: 580c 55bc ee31 ec3d 1a86 fe71 099e ed3d
00000180: 9eac 6e0d f810 623d fa42 7575 36c5 613d
00000190: 2c1c da25 a85c 613d 25c8 ff0f 259e 573d
000001a0: 3460 8a7e fec8 573d 60e6 e97a 4277 573d
000001b0: 2853 59a1 24c6 3c3d 2514 77a0 1bed 3c3d
000001c0: ae3b 32b5 2bf6 3a3d cd84 a39c fb1e 5a3d
000001d0: 037c 7123 edee 593d 49a3 0f44 c3f4 593d
000001e0: 393b ed4e f038 2f3d f318 a197 a79c 2d3d
000001f0: aed7 4efe a4fa 2b3d 362e f231 1a6e 603d
00000200: 7220 e3fe f96c 603d fbd4 3f08 a984 603d
00000210: a2f1 2d6a e47e 523d 8583 a522 8e57 523d
00000220: 2622 e3c2 adbd 513d 0106 419d b9a4 513d
00000230: 8cbb 6bc5 f91d 523d e922 2805 7009 523d
00000240: e325 31c2 4fa3 033f 2771 8cca bb1f 043f
00000250: 4545 9357 b79f 043f 16c8 82fb 0fe8 f83e
00000260: 5ad0 3990 ab05 f83e f59c c501 d321 f73e
00000270: c949 567a 4ec5 ce3e 9d54 b0cc 590e d13e
00000280: 1136 1823 f7e0 d23e 4253 d5ed c173 f73e
00000290: 3a44 bf95 b2b6 f73e 03ce ca0d 57ff f73e
000002a0: 6e2f 8192 fe46 f83e bcb9 7175 c49e f93e
000002b0: 40d6 1f7a dcfe fa3e 3bf5 76a2 ef33 1a3f
000002c0: 657d b95e f767 1a3f 99a5 9fcf 5a9a 1a3f
000002d0: e69a 4cf3 38e8 023f e8ca 11d7 ed3e 033f
000002e0: b126 9be4 6695 033f 63d4 0b42 bdaf 093f
000002f0: fc4d cd4a 1625 0a3f 5210 df97 f494 0a3f
00000300: 6365 8d94 a682 bd3e 2183 e8cf 0d4d fe3e
00000310: 3e59 3a53 2fcc f53e 9ed2 686e e8f5 573e
00000320: f305 9d4d 7689 d33e 7e77 4eaf 36d6 833e
00000330: cafb de58 31f4 7c3e 3be9 db5c c5bf 903e
00000340: 8d3c 4355 52a1 d03e 0201 891e e655 ae3e
00000350: 1ab1 c93e 7d1f c13e 2aa6 9a58 a048 d83e
00000360: 9e01 1dc8 3e99 9c3e c26b 0f06 e138 aa3e
00000370: 9b17 9dd9 f5e7 e33e 7635 a93f 97c8 b13e
00000380: a4f7 564b 2db1 b53e 7803 56e9 581d f03e
00000390: edcf c54c d1d6 bb3e f11f c049 5003 f23e
000003a0: fb64 a032 7916 f23e b604 d423 dc63 863e
000003b0: ba85 fd72 0061 de3e c694 cd50 4b69 ce3e
000003c0: 3a23 af7c 3bc4 723f c498 8038 2c87 733f
000003d0: 4600 24d9 25cc 733f 8409 50e4 ecce 563f
000003e0: ff64 fb27 281f 563f 49dc 45c2 f70b 553f
000003f0: be99 2db8 56a3 223f 6607 e509 1b89 223f
00000400: 435a b61a d6ca 233f b09e e978 a7af 773f
00000410: 57de 9ddf 93ff 773f 54f6 3314 b143 783f
00000420: 8c9c 2617 c8c0 283f e6ea ed99 cd94 2a3f
00000430: ee20 7728 864a 2d3f 6ee4 d363 5b20 523f
00000440: d2a9 9e05 0b2a 513f f60a f97f f23b 503f
00000450: 3dc7 6aab 7d40 6a3f 7a7f 2564 fd8f 6b3f
00000460: 2627 598f ba56 6c3f 9b13 43b6 c59f 563f
00000470: ee1a 5708 40bc 553f 78e0 e585 9234 553f
00000480: 7544 8759 7bfe 603f a758 9e23 80b4 633f
00000490: ec85 5441 0ab4 633f 3d2c ff77 e3be 243f
000004a0: 6145 bc13 0c6e 213f 9f73 52fe 6db6 223f
000004b0: 1d04 e9a0 3d30 223f 94d5 3117 c7f2 243f
000004c0: bbaf 51c8 9b7f 2b3f 90fa eabd 199f 4a3f
000004d0: 3a66 5942 ce00 4c3f 665d ea90 8be0 4c3f
000004e0: 07e1 ba16 563f 463f 4a71 e10c 5325 493f
000004f0: aaa8 5779 bd26 4d3f 905d cc47 7044 633f
00000500: 3bfd a3c8 ab7b 643f abd0 6e69 8066 663f
00000510: 8abf 5c13 f774 603f 236b 8436 8e90 623f
00000520: 7b9d 6bbd 87c8 623f fc13 bde5 acc7 443f
00000530: 03a9 4877 e2d4 473f 3d91 50d9 acd4 473f
00000540: 6b0b 70ad 43b6 713e d7c1 11c8 ac16 743e
00000550: 96fb 3540 501d 743e 26fb 1895 af21 103e
00000560: 4add d381 00b9 143e d542 c2e4 c73c 0d3e
00000570: 09d2 5668 6872 2e3e 2b69 740c dfe0 303e
00000580: 92b5 a4a0 5129 363e 1546 f3c7 d464 593e
00000590: d43e 63d9 8c95 593e 4e6b 9b17 30e0 593e
000005a0: 4637 a58c 2ad0 523e b1c0 e909 0a7f 543e
000005b0: 3ef1 9b77 5a0b 583e 9261 062d 9218 613e
000005c0: c52c 9e12 54fe 613e 235d 883f ba4c 643e
000005d0: a180 7129 2037 6f3e 6239 b60b ef20 713e
000005e0: fc90 3138 196e 713e 56e7 6ada e64c 3c3e
000005f0: c6d7 d123 02af 423e ae89 d56f 29d7 423e
8.484807796173781e-13 8.531072568055306e-09 5.9954795744094215e-09 7.439802413010171e-13 1.1418468630239736e-09 9.401246046529116e-12 1.7428590757646034e-13 3.0680450559589105e-11
1.1422706607216378e-09 7.134192482030385e-13 4.161114130965044e-10 1.4374430074934568e-09 6.735798560415945e-14 1.5512164045397713e-10 2.7883421089064416e-09 9.59008442297682e-13
1.30578208543808e-10 4.2306232199951605e-09 4.0638247236613747e-13 5.0549727077261755e-09 4.989901474795964e-09 5.768397882166434e-13 2.140687468409971e-09 1.092484392514354e-09
4.392808099834348e-09 4.4998500306776994e-09 4.620573304392039e-09 1.9928167283001478e-10 2.0305244664967597e-10 2.0864156618071614e-10 3.329807602830842e-10 3.441448297576131e-10
3.5955140631184457e-10 1.5743752582666673e-09 1.5487568551559904e-09 1.5259223543654796e-09 9.751748648853142e-10 1.0282091036414834e-09 1.0779752604286533e-09 1.0928289196445417e-09
1.1533789955554526e-09 1.2179815726232626e-09 3.6282460294165983e-09 3.7065315532230304e-09 3.790249138994762e-09 1.8932463500574846e-10 2.0514598194329246e-10 2.154944495391637e-10
5.134747021974206e-13 5.050640716505914e-13 4.934560346531799e-13 3.3562845699206646e-13 3.3800707335025836e-13 3.33469901026772e-13 1.0222577072323566e-13 1.0276651636961638e-13
9.578686085399895e-14 3.7120211675942654e-13 3.6853444307770687e-13 3.688584303151856e-13 5.54621536497493e-14 5.2601358390062144e-14 4.970083029459533e-14 4.669711644717797e-13
4.668461778845313e-13 4.694756008533078e-13 2.6283931948534784e-13 2.6065567571921335e-13 2.521138162122229e-13 2.507286076400596e-13 2.574593687494802e-13 2.563192757313459e-13
3.745638994041478e-05 3.8383406098160045e-05 3.933695092829063e-05 2.375268351845907e-05 2.2909306621035935e-05 2.2060514412028523e-05 3.6681567105536556e-06 4.0664810496876825e-06
4.50104976003125e-06 2.236573970056393e-05 2.2615110864713575e-05 2.2885725104072548e-05 2.3152658428934386e-05 2.4433312628630138e-05 2.5744964325688383e-05 9.995603669828584e-05
0.00010073134733933548 0.00010148219362773047 3.606246756353796e-05 3.6708482078836636e-05 3.7352755112585684e-05 4.8993075557315196e-05 4.986738472348079e-05 5.070086898187387e-05
1.7589541860457142e-06 2.8897277838282825e-05 2.078780853639297e-05 2.2315027071143843e-08 4.657974580103599e-06 1.4779546800026058e-07 1.0786160073351192e-07 2.4958111742548145e-07
3.964939726055301e-06 9.040696201182137e-07 2.0412212420798327e-06 5.7896844595589124e-06 4.261525604516922e-07 7.814819690214812e-07 9.491965829898886e-06 1.0599826497815883e-06
1.2929497591319581e-06 1.536811631331093e-05 1.659341523821581e-06 1.7178481911656e-05 1.724985774140696e-05 1.6681907936275526e-07 7.2428972968953325e-06 3.6253101200362277e-06
0.004581673022536143 0.004767582642705107 0.0048333624310999464 0.0013921082875190957 0.0013502018118088375 0.001284591629056713 0.00014219697558388687 0.0001414151674428668
0.0001510034902422898 0.005782751263360517 0.00585897219740835 0.005923930849574061 0.00018885080824057978 0.00020279893666582462 0.00022347343131757326 0.0011063473205566127
0.0010476215015652224 0.000990855041792469 0.003204579780992227 0.0033645581290073197 0.003459324240599043 0.0013808661251897062 0.0013266206091075389 0.0012942725075771027
0.002074471394941708 0.002405405303714653 0.0024051857277675916 0.00015827681272492954 0.00013297936845239457 0.00014276592915943035 0.00013876678754523665 0.00015982322983957838
0.00020979668275644494 0.0008124232952793787 0.0008545882344137064 0.0008812600588780472 0.0006789369922080298 0.0007673888701549638 0.0008896279493318022 0.0023519700029159332
0.0025003771926318786 0.0027344234508409246 0.0020088983245826796 0.002266195068057712 0.002292885891950367 0.0006341547227540763 0.000727282122686718 0.0007272571552943485
6.598223066537883e-08 7.48357695966293e-08 7.493237324204708e-08 9.389818544147049e-10 1.206217798656301e-09 8.509210640946512e-10 3.544486317918638e-09 3.929809539653519e-09
5.159853442340761e-09 2.364988604676644e-08 2.3827124794743994e-08 2.4098655049659473e-08 1.752111059823839e-08 1.9088617459644768e-08 2.2393045174215465e-08 3.18437450880145e-08
3.351545026151988e-08 3.781116925479457e-08 5.8143091390779774e-08 6.380918453881292e-08 6.493207931193424e-08 6.589199774942217e-09 8.700241522210902e-09 8.773280319844037e-09

exp_avg f8 [8]
00000000: dde6 188c c06f 892e 977c 690c 5629 2414
00000010: 0500 0000 0000 0000 e140 85ab dde9 4abf
00000020: 94e7 8dc3 3168 07bf 009b e962 9a63 65bf
00000030: 0260 1e04 810b 69bf 619e f831 dc72 121b
1.6367001531849674e-84 1.1977749733460376e-211 2.5e-323 -0.0008213360188538376 -4.4645327256411616e-05 -0.002610971008198404 -0.003057243332431626 2.845428616365641e-178

exp_avg_sq f8 [8]
00000000: 49f9 f819 ddec 4b3e cfc6 a8ee ce86 513e
00000010: 4865 bc36 84b4 923d 3f87 c6a2 4948 2f3f
00000020: d138 4b0b db1b 073f 2cdc 4b97 40f8 ad3f
00000030: ef55 93d1 08f1 773f a5d4 74ec 9a6e 8c3e
1.3003707276874993e-08 1.632291361293634e-08 4.2530569823319055e-12 0.00023866557002088538 4.4076559253634934e-05 0.058534639805593563 0.00584510273730164 2.118352908448394e-07

exp_avg f8 [8, 8, 3]
00000000: bd90 e4b0 0f32 493f afbc 2899 66c1 4b3f
00000010: 2d64 69d6 9a6d 4b3f f0f7 be18 b9a1 4dbf
00000020: 630c 6b91 9748 4cbf 3ffe 4408 4a05 4abf
00000030: e929 36a6 3def 20bf 5256 7809 54ef 1fbf
00000040: d42f 1403 fc1c 21bf 90e1 f44d 8bc1 513f
00000050: 01fe 2bc5 09cc 523f bd6c c992 886a 533f
00000060: ee2f 8f65 55f2 1ebf 79d4 e6b3 0112 19bf
00000070: 0574 e479 0d5d 13bf 1b04 9bd2 6421 51bf
00000080: 556b 4a11 b80e 4fbf 08d9 38d9 cd48 4cbf
00000090: 7ce3 bd6f 52bd 403f 509b 0eb8 bbc9 433f
000000a0: b358 2dd6 f190 443f e1d8 983c 6798 4bbf
000000b0: 3e2f e07e d275 4abf d2db d157 f9bf 4abf
000000c0: 3147 0ba6 6595 7bbf 37f8 4f98 e290 7bbf
000000d0: 797f 6f6d 398e 7bbf c7b5 b248 e684 823f
000000e0: fceb 8a3b d4e5 813f ae60 3145 863f 813f
000000f0: 48a2 a8df 5f9f 533f a416 489d 53f1 4f3f
00000100: 14ee 1de3 e75b 483f 0c51 8fe5 0c09 86bf
00000110: 4629 3e97 475c 86bf c661 18e8 fcb2 86bf
00000120: 5320 a918 3377 573f bb68 338a 4921 5a3f
00000130: 1ce2 83d5 96de 5c3f 7173 06b8 fcc5 863f
00000140: 5b2c 2462 e15c 863f 207b e73d 54ed 853f
00000150: a9bd c675 ee27 72bf 696f 6420 15a6 72bf
00000160: 9afd b1af c82c 73bf addd ac39 5afd 823f
00000170: 5074 bef3 bffe 823f 4e97 7bda 09ff 823f
00000180: 0500 0000 0000 0080 0500 0000 0000 0080
00000190: 0000 0000 0000 0000 0500 0000 0000 0000
000001a0: 0500 0000 0000 0000 0000 0000 0000 0000
000001b0: 0500 0000 0000 0000 0500 0000 0000 0000
000001c0: 0000 0000 0000 0000 0500 0000 0000 0080
000001d0: 0500 0000 0000 0000 0000 0000 0000 0000
000001e0: 0500 0000 0000 0080 0500 0000 0000 0080
000001f0: 0000 0000 0000 0000 0500 0000 0000 0000
00000200: 0500 0000 0000 0080 0000 0000 0000 0000
00000210: 0500 0000 0000 0080 0500 0000 0000 0080
00000220: 0000 0000 0000 0000 0500 0000 0000 0080
00000230: 0500 0000 0000 0000 0000 0000 0000 0000
00000240: 84d6 5567 b09b 50bf 360d dcff d84c 54bf
00000250: 665c 7bfb 94dc 51bf a7c3 68df b042 7e3f
00000260: 9b93 468f 1b75 7d3f 8bce 57c8 3f5d 7c3f
00000270: a41b 6bc3 013c 4abf 306e dcaf 468f 4bbf
00000280: 0f0a ba58 9dd9 4bbf 5783 f4a6 5d1b 79bf
00000290: ce9b 2cdc 3d47 7abf f846 3c0e bad7 7abf
000002a0: 93b9 0f08 8dae 713f 0f87 6754 7576 713f
000002b0: c171 b009 dd7f 713f 561e 22e8 44aa 8b3f
000002c0: 96eb 1e26 6ffa 8a3f 10a0 8b7d a990 8a3f
000002d0: 21cc e904 d41b 483f 36f7 c972 6c88 3b3f
000002e0: 418a ee59 e136 3b3f 9b67 87a5 ea66 833f
000002f0: ae3b 1c96 dc52 833f 5e03 e91c 2c9e 833f
00000300: ec8e 63b3 a84a 50bf e429 3144 249b 4dbf
00000310: 5a19 b038 c3fc 4ebf 8ae8 a862 05b9 4abf
00000320: 449a bcc3 bc2a 4cbf 557e 9802 0a43 4bbf
00000330: 5f9a cb5a d93c 1bbf 4955 8c2a 1507 15bf
00000340: 88ec 82ef fd14 1fbf 35a1 765c f043 48bf
00000350: 5932 623e 1f55 47bf 82f8 910e 0dc9 46bf
00000360: e63e 90b0 2e72 3bbf 44fa a39a 9518 3cbf
00000370: 3d2f 39e2 b15d 3abf e760 121c 93eb 5bbf
00000380: 1990 aa95 6932 5cbf 2ad8 ed1b d0b8 5bbf
00000390: 9951 f54d 3951 54bf 77a8 16d9 312e 53bf
000003a0: c31a b26f 2183 53bf c408 4223 1aa7 46bf
000003b0: 7693 5193 ec8e 45bf 97cc a8ef a4f4 46bf
000003c0: 2512 da3b ee7e b3b6 e2fb 8a40 b95c b3b6
000003d0: 3556 4229 f63d b3b6 8e15 27f8 1b14 bc36
000003e0: f7e8 21be abc2 bb36 cdd0 72c7 8571 bb36
000003f0: 4f84 c2a8 aee1 9f36 17a7 ef8a 4d7c 9e36
00000400: 9ce2 76c0 8d22 9d36 1a41 5536 7b7c b9b6
00000410: 8175 c5b9 0ba7 b9b6 ab5d f627 63d1 b9b6
00000420: 466c 8514 879b 67b6 9910 eac9 7c36 5ab6
00000430: f170 99e3 2207 39b6 e9b7 aef5 6d8a bd36
00000440: 1904 0e51 168a bd36 fd36 fb2d e984 bd36
00000450: 36a4 7b31 271e a6b6 c9e3 6ce9 c525 a6b6
00000460: fb7a 8380 de32 a6b6 14f0 7293 9d87 b636
00000470: c33a ec7f 90aa b636 dc45 dd08 e0c9 b636
00000480: 0500 0000 0000 0080 6c7c 283c fc5d 2c85
00000490: a0d9 f48f 84a1 2785 0500 0000 0000 0000
000004a0: 2d2b 3273 0f49 1205 570f d38c 8060 d004
000004b0: 0500 0000 0000 0000 775e 4a6b e946 e784
000004c0: 98c8 463e 4dfa 1705 0500 0000 0000 0080
000004d0: f3c3 7720 d7a3 f984 1377 1e28 9844 0885
000004e0: 0500 0000 0000 0080 4a8e 9c3f a659 0185
000004f0: d0b0 d6fb d6ff 2185 0500 0000 0000 0000
00000500: d299 bf96 1acc dc04 9898 4463 07e8 1985
00000510: 0500 0000 0000 0080 b0a3 b2db 3c5d 2585
00000520: 0a14 5582 7c77 2485 0500 0000 0000 0000
00000530: 70aa 727d 2694 1b85 c0a3 8fce 6a46 1485
00000540: 0000 0000 0000 0000 0000 0000 0000 0000
00000550: 0000 0000 0000 0000 0000 0000 0000 0000
00000560: 0000 0000 0000 0000 0000 0000 0000 0000
00000570: 0000 0000 0000 0000 0000 0000 0000 0000
00000580: 0000 0000 0000 0000 0000 0000 0000 0000
00000590: 0000 0000 0000 0000 0000 0000 0000 0000
000005a0: 0000 0000 0000 0000 0000 0000 0000 0000
000005b0: 0000 0000 0000 0000 0000 0000 0000 0000
000005c0: 0000 0000 0000 0000 0000 0000 0000 0000
000005d0: 0000 0000 0000 0000 0000 0000 0000 0000
000005e0: 0000 0000 0000 0000 0000 0000 0000 0000
000005f0: 0000 0000 0000 0000 0000 0000 0000 0000
0.0007689072242880384 0.000847029778304439 0.0008370405237868632 -0.0009042886535934862 -0.0008631458357161278 -0.0007940875516751557 -0.00012920024446956495 -0.0001218218843564653
-0.00013056351011930692 0.001083742179458811 0.001147279301846882 0.0011850675320122372 -0.0001180519697207558 -9.563575165468127e-05 -7.386584045261664e-05 -0.001045559367796273
-0.0009477995650571761 -0.0008631711120361827 0.0005108501932077204 0.0006038824650332706 0.0006276303141514922 -0.0008421424947247202 -0.0008075025377833678 -0.0008163421149579525
-0.006734273018723689 -0.006729970108606812 -0.006727432561973384 0.009042548268861318 0.008739145342920189 0.008421944605445066 0.001197665812137443 0.0009748132966371404
0.0007433779012297492 -0.01075944972573286 -0.010918196967186444 -0.01108357985781162 0.0014322279918293115 0.0015948503649299412 0.0017620537747103987 0.011119818082812679
0.010919342811140867 0.0107065755263967 -0.004432612881302069 -0.004552919888990072 -0.004681381159684328 0.009272293934926202 0.00927495920751134 0.009275509815278273
-2.5e-323 -2.5e-323 0.0 2.5e-323 2.5e-323 0.0 2.5e-323 2.5e-323
0.0 -2.5e-323 2.5e-323 0.0 -2.5e-323 -2.5e-323 0.0 2.5e-323
-2.5e-323 0.0 -2.5e-323 -2.5e-323 0.0 -2.5e-323 2.5e-323 0.0
-0.0010136816684655223 -0.001239025033499553 -0.0010901884942791317 0.007387820157007597 0.007191760687793282 0.006924866820088869 -0.0008006104097483158 -0.0008410544539602712
-0.000849916295422583 -0.006129613713057611 -0.006415597573130106 -0.006553389339176034 0.0043168553392959495 0.004263361281546598 0.004272330693336491 0.013508356413026206
0.013172977782110167 0.01297123350509824 0.0007357392549479682 0.00042011878648638994 0.0004152584241926862 0.009473641563932314 0.009435389834406251 0.009579033500928421
-0.0009943625896590659 -0.0009035040933523223 -0.0009456589917824873 -0.0008155132575844587 -0.0008595868780261824 -0.0008319662931092856 -0.00010390354755039067 -8.021418274169636e-05
-0.00011856841945505532 -0.0007405208242987961 -0.0007120516354617953 -0.0006953538660494781 -0.0004187931049850338 -0.00042871143763526334 -0.0004023131643620009 -0.0017041145913819168
-0.0017210036373080993 -0.0016920120540056074 -0.0012400683989045368 -0.0011706816479582197 -0.0011909319426039323 -0.0006913068414322811 -0.0006579070237760904 -0.0007005505897893668
-3.414933294143536e-45 -3.391527942554279e-45 -3.370479677368318e-45 4.918303935934494e-45 4.862581531499218e-45 4.807057614675733e-45 1.3961124048885958e-45 1.3349801844047317e-45
1.2758373866150682e-45 -4.4642312612948067e-45 -4.493355077855849e-45 -4.522326324996702e-45 -1.2922341956616628e-46 -7.174221623931e-47 -1.712476775634406e-47 5.1744242612539177e-45
5.174190011930297e-45 5.170648232505602e-45 -1.9371011821584035e-45 -1.9397080879747514e-45 -1.9441884303463038e-45 3.9463626887726547e-45 3.970275710770766e-45 3.991699349658915e-45
-2.5e-323 -9.538267483315791e-284 -7.945749929238992e-284 2.5e-323 3.0741735170935485e-284 1.7208279359315713e-285 2.5e-323 -4.8917145503182145e-285
4.0311816567156093e-284 -2.5e-323 -1.0776609691987746e-284 -2.039985775284401e-284 -2.5e-323 -1.4584730763324748e-284 -6.052175344810715e-284 2.5e-323
3.0259071607604746e-285 -4.3554250426906955e-284 -2.5e-323 -7.183580008590359e-284 -6.881812671924365e-284 2.5e-323 -4.6365835105893687e-284 -3.4086813552772864e-284
0.0 0.0 0.0 0.0 0.0 0.0 0.0 0.0
0.0 0.0 0.0 0.0 0.0 0.0 0.0 0.0
0.0 0.0 0.0 0.0 0.0 0.0 0.0 0.0
