lightning_logs/version_58/checkpoints/epoch=2823.ckpt (torch_old, 800454 bytes, 102 tensors)

exp_avg f8 [16, 2, 3]
4.540524996590943e-05 3.7410477340602594e-05 3.0816114992471604e-05 -4.446660266938721e-05 -4.1032254413524254e-05 -3.749814144068566e-05 -0.00014236056021769034 -0.0001397341495444132
-0.00013608603053155845 2.6064353087985343e-06 2.1596998303688658e-06 1.7612036426520835e-06 0.00037558423601725396 0.0003850999749428814 0.00039153893658144134 0.0001011129451407064
0.00010386642293275335 0.00010633387894219814 0.00011317584838103715 0.0001115035404780802 0.00010916398960249577 4.91068199941512e-07 1.2788580748181617e-06 2.028162947326639e-06
8.409699224823548e-05 8.26152085485491e-05 8.00026870069452e-05 -3.2767038968395105e-06 -4.144247758429758e-06 -5.061155642165068e-06 0.00011620592891444424 0.0001236795950549426
0.00012986963612450386 6.090206960295735e-05 6.174681103097209e-05 6.245638032742889e-05 -0.00013025350128870658 -0.00012789888562474963 -0.00012423188226456057 3.4719877015793482e-06
3.830081141072494e-06 4.250773016002362e-06 9.618925889297194e-05 9.555443175776394e-05 9.376816046137421e-05 2.7106256815723196e-06 2.4166905762090344e-06 2.0691069794814656e-06
7.55863871436124e-05 7.517529478022978e-05 7.360188613751366e-05 2.1633255372315973e-06 1.373275304552597e-06 5.321995912802319e-07 -0.0004548394070206731 -0.00045926457220827753
-0.00045888177099764324 -6.882586841763566e-05 -6.939542370480617e-05 -6.963535302485161e-05 8.357803656744063e-06 1.20058805139435e-05 1.460915872792679e-05 1.829433721572489e-05
1.6895068156403396e-05 1.543434798958834e-05 -0.00012195054840912236 -0.00012176496785802991 -0.00012094754351674368 -1.3343110470049265e-05 -1.4288725988345969e-05 -1.5173205116686154e-05
0.00017732011858576137 0.00018062592759397563 0.00018180392231491693 3.993049314121509e-05 3.883250683206364e-05 3.7561745412493905e-05 -0.0001477506200861691 -0.00014316753453512534
-0.00013728598190399885 1.4894713089713558e-05 1.5350612477404538e-05 1.585433942818031e-05 -6.20179104998996e-05 -7.830063282089492e-05 -9.155655592419024e-05 -0.00011348814061643329
-0.00010811650293793812 -0.00010246738048972716 0.0001181558804385812 0.00011424009276058914 0.00010971582496042409 -1.188227957470245e-05 -1.1618875231729066e-05 -1.1378490114706153e-05
00000000: 2591 6582 30ce 073f f371 b136 269d 033f
00000010: fd8c 0ea6 1128 003f 5f24 76d5 3450 07bf
00000020: a975 bb86 4183 05bf d6ad 4554 eaa8 03bf
00000030: a694 97e6 d3a8 22bf e164 7134 b350 22bf
00000040: 3608 e519 4ad6 21bf 58c3 ebf6 46dd c53e
00000050: 3340 ba89 eb1d c23e ff57 4ce2 4f8c bd3e
00000060: 99d8 b502 429d 383f 5e52 4ecc e73c 393f
00000070: 8393 7fed eea8 393f 3381 9a2b 9381 1a3f
00000080: 4710 008f 5b3a 1b3f 5a3c 4b21 f2df 1b3f
00000090: 6f0b 1d45 1aab 1d3f ace4 2c3d e03a 1d3f
000000a0: e804 9c0f df9d 1c3f 9ba4 4864 3e7a a03e
000000b0: 885f d352 a774 b53e 7d9d 2e5f 7203 c13e
000000c0: 8008 5a53 a70b 163f 6b98 b879 36a8 153f
000000d0: 7a47 78b2 e3f8 143f 9e7a 8604 ab7c cbbe
000000e0: 8f61 5226 da61 d1be 8879 a0de 5f3a d5be
000000f0: 5755 3ba8 7276 1e3f bf58 c3a1 ff35 203f
00000100: d721 07ae b305 213f 41fc 782d 23ee 0f3f
00000110: c099 d322 c22f 103f 3361 9871 605f 103f
00000120: af70 730e 9512 21bf 2c17 d90f 93c3 20bf
00000130: bb46 2ebe 8748 20bf a58a b86c 0920 cd3e
00000140: 70ee feaf 8410 d03e 839e eb96 3bd4 d13e
00000150: b0db 7ae2 2637 193f 5f77 36a3 8c0c 193f
00000160: f443 f8ba ac94 183f 8dc2 4b3a 06bd c63e
00000170: dde0 d3b1 cd45 c43e 6642 6e97 5f5b c13e
00000180: 5090 433e 84d0 133f 71ed edba edb4 133f
00000190: 05ab 89c6 564b 133f c0db 9aca b425 c23e
000001a0: 4cc3 5d2a 2c0a b73e 873e 1f47 8fdb a13e
000001b0: 883b ca60 f0ce 3dbf b45a 5e51 2e19 3ebf
000001c0: 9781 fc32 c212 3ebf 58c7 776a d30a 12bf
000001d0: b28b 1c4d 0c31 12bf 38a2 6b41 2641 12bf
000001e0: f24b b4c9 0f87 e13e 88b3 41a7 9b2d e93e
000001f0: 3693 967c 3ba3 ee3e 93ba db47 d92e f33e
00000200: d593 3d3e 3cb7 f13e da9d 4e51 202f f03e
00000210: df3c f577 f6f7 1fbf 0d0d 1038 82eb 1fbf
00000220: 8e58 caf9 a6b4 1fbf 25c1 9923 87fb ebbe
00000230: 956d d98b 33f7 edbe 380c 9b6e 0dd2 efbe
00000240: 1184 7238 e03d 273f b9b5 55e7 ccac 273f
00000250: 8bfe 1ecd 53d4 273f 8bbf 174c 61ef 043f
00000260: 3d5f 61c6 025c 043f e78b b9be 73b1 033f
00000270: 977a 9729 b05d 23bf 2efe e1c1 e7c3 22bf
00000280: 5741 de9a 8dfe 21bf b53f 81c7 893c ef3e
00000290: e125 990e a618 f03e 4df5 d4e8 dd9f f03e
000002a0: 4169 e696 f341 10bf 9cc3 fea0 aa86 14bf
000002b0: 96e0 59a7 4100 18bf ecc8 e368 0fc0 1dbf
000002c0: 8df9 8960 9357 1cbf a1ca 4331 78dc 1abf
000002d0: f0b4 ba91 4ef9 1e3f 0dd7 64d9 85f2 1d3f
000002e0: 661a 2e85 e7c2 1c3f 4fe2 d111 40eb e8be
000002f0: 9b28 680d d65d e8be 4e42 01c6 c7dc e7be

exp_avg_sq f8 [16, 2, 3]
1.8571179350350948e-06 1.8206288200713544e-06 1.778479991365802e-06 2.1126677584655698e-07 2.0098774461514656e-07 1.9194352032386926e-07 4.069256263535468e-06 3.993130936480911e-06
3.866463962634954e-06 3.683101666239685e-08 3.8205051596062865e-08 3.973568849560971e-08 5.0582036393622915e-05 5.137116634796881e-05 5.178459912829074e-05 2.4481232233782387e-06
2.6435125203420695e-06 2.8517171773762056e-06 2.5903062531672946e-06 2.5594654799254276e-06 2.5009189309526913e-06 4.200998815056345e-08 4.510611391185683e-08 4.844337192638664e-08
3.367966360300536e-06 3.3482338435261735e-06 3.280668187695003e-06 4.5859526769246864e-08 4.6723559051529584e-08 4.7698818677820385e-08 8.418831143861796e-06 8.65788096817508e-06
8.843909301838524e-06 5.883298000340795e-07 6.319019905509992e-07 6.782652288792478e-07 5.237666498276691e-06 5.160563455331976e-06 5.016421640228565e-06 2.7395164758300285e-08
2.7159838869378673e-08 2.6970069250466777e-08 3.1658103166739362e-06 3.1400251079023134e-06 3.0544551005764435e-06 2.0742260595337277e-08 1.989332960995963e-08 1.9139736395767585e-08
2.5294255947604676e-06 2.518859004249462e-06 2.459902763523162e-06 3.3408432591237106e-08 3.257023725578664e-08 3.184762445760581e-08 7.791619813744753e-05 7.738085545418909e-05
7.580899037307568e-05 1.0086615791131188e-06 1.0632531557904955e-06 1.1248496608343858e-06 1.6287121226316847e-06 1.6399571557082234e-06 1.6151630683412442e-06 5.673260413320981e-08
5.474779982464866e-08 5.303041428036498e-08 3.065225976323651e-06 3.080680294297367e-06 3.0822411669958917e-06 1.3020191572597733e-07 1.4090242077231314e-07 1.523102701081407e-07
1.136836010530832e-05 1.1201432257680973e-05 1.0895664343246354e-05 2.66873672263285e-07 2.6116872794974706e-07 2.5678873312120705e-07 5.053371333650006e-06 4.964182010709314e-06
4.81829722536658e-06 6.531473583764908e-08 6.575758253973935e-08 6.61627758530976e-08 1.0902480573510259e-05 1.0351157782211577e-05 9.722049627291352e-06 1.050761429419717e-06
9.738434664215944e-07 9.012263490631775e-07 2.067836276271903e-06 2.0004591948985183e-06 1.9178668279245893e-06 2.3106930513838403e-08 2.2837418197147457e-08 2.251723206806385e-08
00000000: 5b50 83c3 4228 bf3e 1274 ba8e 8a8b be3e
00000010: 1f6a 266e 83d6 bd3e 9839 7d36 125b 8c3e
00000020: a19d e0e5 e2f9 8a3e 46aa 4d0f 21c3 893e
00000030: 9888 00a5 5411 d13e e14e 5679 97bf d03e
00000040: f974 7585 9537 d03e 8a38 d531 04c6 633e
00000050: 176e 43c0 dc82 643e 08e5 cd3f 3b55 653e
00000060: 03fb 5e89 0185 0a3f 6a26 dbd5 ebee 0a3f
00000070: b0d9 0c47 6926 0b3f a081 a4f9 4d89 c43e
00000080: 897e 8c60 e62c c63e 202e 0b19 04ec c73e
00000090: 4b51 24ec a3ba c53e 4747 2d07 6978 c53e
000000a0: cb2d ecb8 aefa c43e 7920 f60d cf8d 663e
000000b0: 9d73 9c4b 5637 683e 9332 839f 0102 6a3e
000000c0: 85f7 6916 a740 cc3e 196e 9005 4716 cc3e
000000d0: 2009 dd68 2e85 cb3e 55b7 56a7 e29e 683e
000000e0: 7e8d 4416 a315 693e f300 0cfc ac9b 693e
000000f0: 40c8 8457 d3a7 e13e cc2e 7c19 2a28 e23e
00000100: 5284 98a3 098c e23e c38a 86e9 b6bd a33e
00000110: d4c3 252c ff33 a53e 093f 0103 41c2 a63e
00000120: 27b8 e7cd e6f7 d53e ced1 99e1 1ca5 d53e
00000130: a8aa 167b 570a d53e 3e5e 3057 536a 5d3e
00000140: 83a7 d8c0 a329 5d3e 6465 4ee7 79f5 5c3e
00000150: bffc 93a0 868e ca3e 1910 0f0f 2757 ca3e
00000160: 3635 2673 649f c93e 2218 5ad4 9645 563e
00000170: e837 469f 3c5c 553e 47bf cc36 178d 543e
00000180: 7532 306d e637 c53e 5a7e c761 3521 c53e
00000190: 525d 89d8 99a2 c43e 804a 23b9 9eef 613e
000001a0: e1af bc58 6b7c 613e 28a2 47ab 1a19 613e
000001b0: ce7b 6017 de6c 143f 2846 5bf9 f048 143f
000001c0: 19e1 9e89 74df 133f 7163 7d22 2bec b03e
000001d0: 4d7f 4335 a3d6 b13e e81a 1648 31df b23e
000001e0: ef3e c9ea 4353 bb3e 3e9e 35f6 8f83 bb3e
000001f0: 6296 0b93 1219 bb3e bd0c ab0d 4575 6e3e
00000200: 2f7f c7f5 7a64 6d3e ec15 fcd3 7178 6c3e
00000210: 7138 26cd 85b6 c93e e08f 0be7 b5d7 c93e
00000220: 8a30 5900 10db c93e 6cbe 9229 b479 813e
00000230: fac7 d7cc 5ee9 823e 9013 da4d 5771 843e
00000240: 0b29 fc83 57d7 e73e 706a 7b20 b97d e73e
00000250: 8565 68b4 90d9 e63e 6e6f bdd2 dae8 913e
00000260: 0905 7836 d886 913e 0a0c b3ca 983b 913e
00000270: 7fc3 9c22 0432 d53e e784 f6f5 3fd2 d43e
00000280: 89e2 d274 9b35 d43e eef0 fafb 6488 713e
00000290: 7506 39a0 d3a6 713e d384 addc abc2 713e
000002a0: bc8c 3085 39dd e63e 7da4 f54a 3cb5 e53e
000002b0: 5d7e 8d53 7c63 e43e bed6 df68 fca0 b13e
000002c0: 50e5 0737 a056 b03e 2128 3ab3 793d ae3e
000002d0: 2d40 da03 a558 c13e 03b8 a512 f4c7 c03e
000002e0: 07b3 5c70 9616 c03e 1671 9bae 95cf 583e
000002f0: 9ec3 5470 8085 583e 91f9 cd57 7d2d 583e

exp_avg f8 [16]
0.002608353268924428 -0.0003258256973674399 0.0013779681079038328 0.0005418025773953381 -0.0005990102140152049 0.0002330360035818094 0.00023751710795836235 -0.0002470824830156434
-0.0005781520039490413 4.955411739759446e-06 -0.0011048366116075804 -0.0005992119157454459 -0.0009822103150101925 0.00024230994060995493 0.004252515416340905 0.000254500987370371
00000000: 57f5 90ff 1c5e 653f c03b e2b6 725a 35bf
00000010: 8410 56fd 9d93 563f 2710 e72c f8c0 413f
00000020: fcaf bba3 dca0 43bf 49de 4107 648b 2e3f
00000030: c1ec fd6b c021 2f3f 7570 182f 5b31 30bf
00000040: 4363 7bf9 e3f1 42bf 9397 0235 d5c8 d43e
00000050: b954 5047 051a 52bf 3699 6eca 8da2 43bf
00000060: 719d 914b b017 50bf 1fe5 738a 92c2 2f3f
00000070: 3004 39ea 156b 713f 05ea e46a d1ad 303f

exp_avg_sq f8 [16]
0.0003498397798462309 3.457391597674482e-05 0.0035674167536127737 6.515877314289446e-05 4.975820662196346e-05 0.0008321188539058744 9.992198514763884e-06 8.01585027027135e-06
2.981926434982422e-05 0.0011918538585514431 7.577857374290604e-05 0.00020012461056255205 0.00021097338845904167 3.3881626256537354e-05 0.000976663486327053 6.3943663398648335e-06
00000000: caad cc69 56ed 363f accd 12b5 6e20 023f
00000010: 810b 3749 6a39 6d3f 8690 e332 bb14 113f
00000020: 3fa6 10f6 6e16 0a3f aed3 c7a1 5144 4b3f
00000030: c267 874e 85f4 e43e e480 8412 7acf e03e
00000040: a754 263e 8c44 ff3e 7891 0556 ff86 533f
00000050: 09ce ddfb 69dd 133f 9aa5 a250 113b 2a3f
00000060: 6427 869b 17a7 2b3f f3d2 4bd0 83c3 013f
00000070: 8b03 e96e 6c00 503f 5df1 2509 e6d1 da3e

exp_avg f8 [8, 16, 3]
-2.1077130705428697e-05 -2.2206336918466508e-05 -2.279172470437785e-05 1.6487693974569867e-05 1.7250692249120517e-05 1.78103968727458e-05 6.726281369240681e-06 6.343509777539283e-06
6.078513222968097e-06 -1.1198475443510393e-05 -1.192310051434763e-05 -1.244580493733036e-05 6.507921183164452e-08 5.8666050061729e-07 8.750587483725541e-07 1.2548481701812376e-05
1.2507970406901898e-05 1.2417179059180052e-05 7.501226462925364e-06 7.479046280338507e-06 7.571638151049699e-06 4.5093592221147485e-06 4.9605634011053405e-06 5.072924576513006e-06
6.201576271346908e-06 6.762959149008111e-06 7.015439565577432e-06 -5.275266058255558e-06 -5.017477931385714e-06 -4.772322742867783e-06 2.3082749736009997e-05 2.4022394871648066e-05
2.4532023932384616e-05 6.233808067654227e-06 6.840422331667846e-06 7.213028661314854e-06 4.0409875139508765e-06 4.030927694065346e-06 3.975423213387113e-06 1.2416554555693885e-05
1.2346472009966684e-05 1.2449788115491178e-05 -1.1957477455034154e-05 -1.2341953815140118e-05 -1.2525675206722153e-05 -1.655634344639776e-05 -1.69983120468465e-05 -1.726483113324639e-05
6.091039736471394e-100 9.194486154509404e-100 9.020782064527785e-100 -1.721283830980596e-100 -4.2071417719350005e-100 -4.1405654251317613e-100 1.0216006972567484e-100 2.6273286143956484e-100
2.6290038078558037e-100 1.8389824256182283e-100 4.3370234453043253e-100 4.276630085272168e-100 -2.6402495689879825e-100 -4.596408994916492e-100 -4.5313160143502605e-100 6.185815124376092e-101
1.8081771334676493e-101 2.215849153479054e-101 3.034156667841683e-100 2.032369892323503e-100 2.0085484656006478e-100 -4.0890057819419894e-100 -5.394325604932951e-100 -5.289787675700077e-100
-4.578145578943035e-100 -5.473809434493003e-100 -5.376395177589618e-100 -9.455645593420155e-101 -1.3291128417128502e-100 -1.3446357641892222e-100 -3.982876711787979e-100 -7.126370210967034e-100
-6.97690546747545e-100 -2.30700394897984e-100 -4.2123257928157716e-100 -4.1573961406843903e-100 1.1100202342400187e-100 -2.1223956162181443e-101 -1.831711661345516e-101 5.327703278169371e-100
3.137765626155751e-100 3.109110739141594e-100 1.7790737587987664e-100 3.334891966516436e-100 3.2504727593007345e-100 2.4683676911933116e-100 2.893689060414599e-100 2.827170115345318e-100
-2.5e-323 -2.5e-323 -2.5e-323 2.5e-323 2.5e-323 2.5e-323 -2.5e-323 -2.5e-323
-2.5e-323 -2.5e-323 -2.5e-323 -2.5e-323 -2.5e-323 -2.5e-323 -2.5e-323 2.5e-323
2.5e-323 2.5e-323 2.5e-323 2.5e-323 2.5e-323 -2.5e-323 -2.5e-323 -2.5e-323
-2.5e-323 -2.5e-323 -2.5e-323 2.5e-323 2.5e-323 2.5e-323 2.5e-323 2.5e-323
2.5e-323 2.5e-323 2.5e-323 2.5e-323 -2.5e-323 -2.5e-323 -2.5e-323 2.5e-323
2.5e-323 2.5e-323 2.5e-323 2.5e-323 2.5e-323 -2.5e-323 -2.5e-323 -2.5e-323
2.5e-323 2.5e-323 2.5e-323 -2.5e-323 -2.5e-323 -2.5e-323 2.5e-323 -2.5e-323
2.5e-323 2.5e-323 2.5e-323 2.5e-323 -2.5e-323 -2.5e-323 -2.5e-323 -2.5e-323
2.5e-323 2.5e-323 2.5e-323 2.5e-323 2.5e-323 -2.5e-323 -2.5e-323 -2.5e-323
-2.5e-323 -2.5e-323 -2.5e-323 -2.5e-323 -2.5e-323 -2.5e-323 -2.5e-323 -2.5e-323
-2.5e-323 -2.5e-323 -2.5e-323 -2.5e-323 2.5e-323 2.5e-323 2.5e-323 2.5e-323
2.5e-323 2.5e-323 2.5e-323 2.5e-323 2.5e-323 2.5e-323 2.5e-323 -2.5e-323
-3.3685828247825684e-05 -3.568710920610763e-05 -3.676196219859454e-05 3.649844438465868e-05 3.8088885396311543e-05 3.928257546784891e-05 1.6612305389970547e-05 1.575665249288426e-05
1.5086638907570803e-05 -2.2946940275855668e-05 -2.443887572660104e-05 -2.5519864397539875e-05 -7.931392562750087e-06 -6.9951071275976566e-06 -6.509186572782344e-06 2.7258424740844603e-05
2.7050013376264215e-05 2.6777657916299997e-05 2.3533520172243674e-05 2.3618615350104805e-05 2.385711180751073e-05 -2.122832881796812e-06 -1.4934748470549058e-06 -1.4154868114799494e-06
4.348628179060359e-06 5.2905862903573435e-06 5.727980399925808e-06 -1.0648996777590128e-05 -9.998042744782735e-06 -9.390014142596753e-06 4.1956640134744016e-05 4.362972567741886e-05
4.4536466993675794e-05 1.0827377853118553e-05 1.2049216657692703e-05 1.290882241865497e-05 5.979742224743271e-06 5.833078846461323e-06 5.562959032646016e-06 3.6136536904278104e-05
3.61364029291899e-05 3.629134262877038e-05 -1.996752564413838e-05 -2.056399694638448e-05 -2.074128227382328e-05 -3.5726898286857966e-05 -3.657518497699397e-05 -3.715170582776778e-05
0.0 2.5e-323 2.5e-323 0.0 -2.5e-323 -2.5e-323 0.0 -2.5e-323
2.5e-323 0.0 2.5e-323 2.5e-323 0.0 -2.5e-323 -2.5e-323 0.0
00000000: 0702 a764 d919 f6be fb44 6fda f748 f7be
00000010: 5bc4 4565 1be6 f7be 5612 d8b3 e149 f13e
00000020: b305 718b b216 f23e 2b6b 4f27 f1ac f23e
00000030: e067 f024 4a36 dc3e 5763 b9b0 4a9b da3e
00000040: f9b3 f7fd c07e d93e a905 d5be 227c e7be
00000050: ae08 f374 2a01 e9be 7d2c dc67 ca19 eabe
00000060: 3c91 279a 3578 713e f222 7f15 60af a33e
00000070: 3822 a389 b25c ad3e 06b2 5831 ea50 ea3e
00000080: 815e df5c 2a3b ea3e ffd4 4f18 6c0a ea3e
00000090: 6e02 fd6d 6176 df3e 74e0 6496 905e df3e
000000a0: 4c9b 0e0c fcc1 df3e 3095 8139 e3e9 d23e
000000b0: 1c10 f348 5dce d43e b5d9 c1e3 0247 d53e
000000c0: 97fd 224e e402 da3e 4a94 3d0e ac5d dc3e
000000d0: c07f 1558 c56c dd3e b7f5 b817 4620 d6be
000000e0: 7883 f8d4 790b d5be 66e2 3916 3e04 d4be
000000f0: f2c7 c57b 3a34 f83e 4b80 d067 7630 f93e
00000100: 0d88 10d9 43b9 f93e da58 2a1d 8025 da3e
00000110: 14d3 1ff9 d8b0 dc3e bb3d 9d38 ee40 de3e
00000120: e826 9830 faf2 d03e e8cc b3f7 2ce8 d03e
00000130: 07cd 1903 94ac d03e 307f 8c43 160a ea3e
00000140: 39da 2e31 76e4 e93e 1089 7bd9 ed1b ea3e
00000150: db90 0530 9f13 e9be 1fc7 5537 09e2 e9be
00000160: 911d 23b1 ab44 eabe 9ed0 1f42 4f5c f1be
00000170: f61a f81b f3d2 f1be 904d 5229 7e1a f2be
00000180: 989c dc1e f350 552b 23e3 4110 a916 602b
00000190: 9f2e 361e b391 5f2b b3e8 68d5 6018 38ab
000001a0: 4765 28c4 5672 4dab 9857 e236 0cfb 4cab
000001b0: 7810 05d4 ff99 2c2b 150f 7ee8 a263 422b
000001c0: c1b4 a651 a366 422b 16c0 8d75 29be 392b
000001d0: f274 3074 0f5b 4e2b 2b3a 4d09 d9ee 4d2b
000001e0: a98e 18bf c97a 42ab 1566 4fc4 e915 50ab
000001f0: 5d0b c966 31b7 4fab 1d45 93ac 7c51 212b
00000200: ba9a 9c8f d03f 042b dc12 8407 8fd0 082b
00000210: 4196 dcd2 963c 452b 395f 9b03 2f73 3c2b
00000220: 2f52 1a40 d11d 3c2b fc44 01d2 a99e 4cab
00000230: 3e9b b6d4 c3e0 52ab 605e 4112 1c83 52ab
00000240: 88a0 0e0e 8d05 50ab 5d22 ac6f f927 53ab
00000250: e8e3 687d b3d0 52ab 3ead 79ce 0879 2aab
00000260: a87f 9b62 ff9a 32ab 7849 0d1b a0d2 32ab
00000270: 7d86 fa71 80e0 4bab 37d4 8605 80f0 58ab
00000280: dba9 a84d 986a 58ab 7dec a312 ae25 40ab
00000290: 5ee3 d8ac a07b 4dab 0a2b 7e75 3419 4dab
000002a0: 5e16 92e5 b713 2f2b 3010 93a6 a3c4 07ab
000002b0: 84f6 e102 4983 04ab 56da 6d02 14a5 522b
000002c0: d5b8 6339 3cf6 452b 5d8c 453c e4c2 452b
000002d0: ed1e 0b48 79e7 382b 3b9f 9d05 7257 472b
000002e0: 66dc 77f4 2ec0 462b 2cb2 a293 cf46 412b
000002f0: cb09 fc5e e640 442b fc50 3b26 b6c9 432b
00000300: 0500 0000 0000 0080 0500 0000 0000 0080
00000310: 0500 0000 0000 0080 0500 0000 0000 0000
00000320: 0500 0000 0000 0000 0500 0000 0000 0000
00000330: 0500 0000 0000 0080 0500 0000 0000 0080
00000340: 0500 0000 0000 0080 0500 0000 0000 0080
00000350: 0500 0000 0000 0080 0500 0000 0000 0080
00000360: 0500 0000 0000 0080 0500 0000 0000 0080
00000370: 0500 0000 0000 0080 0500 0000 0000 0000
00000380: 0500 0000 0000 0000 0500 0000 0000 0000
00000390: 0500 0000 0000 0000 0500 0000 0000 0000
000003a0: 0500 0000 0000 0000 0500 0000 0000 0080
000003b0: 0500 0000 0000 0080 0500 0000 0000 0080
000003c0: 0500 0000 0000 0080 0500 0000 0000 0080
000003d0: 0500 0000 0000 0080 0500 0000 0000 0000
000003e0: 0500 0000 0000 0000 0500 0000 0000 0000
000003f0: 0500 0000 0000 0000 0500 0000 0000 0000
00000400: 0500 0000 0000 0000 0500 0000 0000 0000
00000410: 0500 0000 0000 0000 0500 0000 0000 0000
00000420: 0500 0000 0000 0080 0500 0000 0000 0080
00000430: 0500 0000 0000 0080 0500 0000 0000 0000
00000440: 0500 0000 0000 0000 0500 0000 0000 0000
00000450: 0500 0000 0000 0000 0500 0000 0000 0000
00000460: 0500 0000 0000 0000 0500 0000 0000 0080
00000470: 0500 0000 0000 0080 0500 0000 0000 0080
00000480: 0500 0000 0000 0000 0500 0000 0000 0000
00000490: 0500 0000 0000 0000 0500 0000 0000 0080
000004a0: 0500 0000 0000 0080 0500 0000 0000 0080
000004b0: 0500 0000 0000 0000 0500 0000 0000 0080
000004c0: 0500 0000 0000 0000 0500 0000 0000 0000
000004d0: 0500 0000 0000 0000 0500 0000 0000 0000
000004e0: 0500 0000 0000 0080 0500 0000 0000 0080
000004f0: 0500 0000 0000 0080 0500 0000 0000 0080
00000500: 0500 0000 0000 0000 0500 0000 0000 0000
00000510: 0500 0000 0000 0000 0500 0000 0000 0000
00000520: 0500 0000 0000 0000 0500 0000 0000 0080
00000530: 0500 0000 0000 0080 0500 0000 0000 0080
00000540: 0500 0000 0000 0080 0500 0000 0000 0080
00000550: 0500 0000 0000 0080 0500 0000 0000 0080
00000560: 0500 0000 0000 0080 0500 0000 0000 0080
00000570: 0500 0000 0000 0080 0500 0000 0000 0080
00000580: 0500 0000 0000 0080 0500 0000 0000 0080
00000590: 0500 0000 0000 0080 0500 0000 0000 0080
000005a0: 0500 0000 0000 0000 0500 0000 0000 0000
000005b0: 0500 0000 0000 0000 0500 0000 0000 0000
000005c0: 0500 0000 0000 0000 0500 0000 0000 0000
000005d0: 0500 0000 0000 0000 0500 0000 0000 0000
000005e0: 0500 0000 0000 0000 0500 0000 0000 0000
000005f0: 0500 0000 0000 0000 0500 0000 0000 0080
00000600: 8249 cc3e 3ca9 01bf 3c47 45bc d7b5 02bf
00000610: d37f 2d67 1b46 03bf 012d f9ff bc22 033f
00000620: a2e4 0e23 34f8 033f 3194 f703 6b98 043f
00000630: 4709 0cef 546b f13e 598f 17ea a485 f03e
00000640: 75d1 e4dc 93a3 ef3e f9a2 7bba c50f f8be
00000650: 9fac 7fc0 42a0 f9be 614e 4fba 6fc2 fabe
00000660: c642 1c4b 22a2 e0be e10f f567 f056 ddbe
00000670: 9fab be94 2f4d dbbe 1093 51af 2095 fc3e
00000680: e0b5 d1c3 2e5d fc3e 0ab4 e5a3 1214 fc3e
00000690: c36e 2631 3bad f83e 34bd 59e3 12c4 f83e
000006a0: 0c71 663d 1804 f93e 8e70 fbb7 bfce c1be
000006b0: 5df0 caf5 6c0e b9be c9a9 4b35 78bf b7be
000006c0: 0228 dbcf 4d3d d23e 954c 3749 b930 d63e
000006d0: f7c3 6a43 5f06 d83e 5ad9 fef8 2255 e6be
000006e0: f6ac 1788 a8f7 e4be 7134 83b7 39b1 e3be
000006f0: 8c46 862d 53ff 053f de8c 97f5 e1df 063f
00000700: f08e 8e5a 9559 073f 9768 217b e7b4 e63e
00000710: e961 43ba df44 e93e 92e4 340b 5f12 eb3e
00000720: 6d80 dc06 b314 d93e 3d62 1d81 3877 d83e
00000730: fb01 0a89 2e55 d73e 9548 1cf4 29f2 023f
00000740: 7234 a759 25f2 023f 47da a909 f106 033f
00000750: d373 fae9 fdef f4be 34fc 181c 1b90 f5be
00000760: a993 8f10 b2bf f5be 09e6 b9e0 2ebb 02bf
00000770: d1b2 5cc9 092d 03bf 7f0e 65e4 6a7a 03bf
00000780: 0000 0000 0000 0000 0500 0000 0000 0000
00000790: 0500 0000 0000 0000 0000 0000 0000 0000
000007a0: 0500 0000 0000 0080 0500 0000 0000 0080
000007b0: 0000 0000 0000 0000 0500 0000 0000 0080
000007c0: 0500 0000 0000 0000 0000 0000 0000 0000
000007d0: 0500 0000 0000 0000 0500 0000 0000 0000
000007e0: 0000 0000 0000 0000 0500 0000 0000 0080
000007f0: 0500 0000 0000 0080 0000 0000 0000 0000

exp_avg_sq f8 [8, 16, 3]
7.513105421520609e-07 7.49183987466684e-07 7.304207679472626e-07 2.7772874371545615e-07 2.806651481200561e-07 2.79973699794843e-07 6.779559743392194e-08 6.990527769289454e-08
7.11627305978017e-08 2.3284519386244715e-07 2.355439958780049e-07 2.3471304279062808e-07 1.545412530825466e-07 1.5522706175050063e-07 1.5270059646815757e-07 6.927199398972506e-09
6.8016262964899115e-09 6.7029299291876185e-09 3.918169005263771e-08 3.924477627756554e-08 3.8853733647490695e-08 1.951942116157908e-07 1.936528423725218e-07 1.8751893406706119e-07
2.2660286300596503e-07 2.2578539176944652e-07 2.192569493207869e-07 2.5507813692378693e-08 2.6695061974133012e-08 2.756944334057328e-08 4.880620579964228e-07 4.857173498014486e-07
4.735366529176833e-07 1.9257505440322895e-07 1.9488609799959975e-07 1.9385928518823888e-07 3.5753635942312824e-09 3.76647918248729e-09 3.938675012671804e-09 8.492713479411644e-08
8.501899606775863e-08 8.352786956414874e-08 8.51007083029466e-08 8.365964406001661e-08 8.032547681153105e-08 1.374615449715727e-07 1.3695628087935563e-07 1.3393916373506012e-07
1.8751429250476457e-19 4.27273784144835e-19 4.1128197730215554e-19 1.4974649884011833e-20 8.945931505327602e-20 8.665039616107334e-20 5.274896018519541e-21 3.48883184981776e-20
3.493282242184534e-20 1.7092544525632163e-20 9.506809765371156e-20 9.243886810093509e-20 3.523238191588535e-20 1.0677972890222894e-19 1.0377676634137601e-19 1.9339650343647823e-21
1.6525982717300118e-22 2.4817039920789406e-22 4.6529397305269185e-20 2.0876476170635547e-20 2.0389954162900156e-20 8.450600566004752e-20 1.4707064907681528e-19 1.4142562223596826e-19
1.0593290312406009e-19 1.514366035806262e-19 1.4609448577810175e-19 4.5189089695018164e-21 8.928426797102432e-21 9.138197404059417e-21 8.017616056794336e-20 2.5667764674609586e-19
2.460237003525969e-19 2.689972815802628e-20 8.96798960973494e-20 8.735625503714336e-20 6.2275028456915694e-21 2.2768317642788506e-22 1.6958847971235843e-22 1.4346017808772482e-19
4.976138586416302e-20 4.885666362744985e-20 1.599704564657232e-20 5.621017791201021e-20 5.340039262973632e-20 3.0794349634151985e-20 4.232091003979441e-20 4.039755982461679e-20
8.733949654403691e-33 1.3566581291941422e-32 2.0581289679763217e-32 1.1806359419061792e-29 1.1830874494250269e-29 1.1847328143284846e-29 5.707201516641818e-31 5.699720784483661e-31
5.696325925759334e-31 5.668347545618195e-30 5.662465847934585e-30 5.651417632788315e-30 1.840121628043897e-30 1.8471955684293866e-30 1.8569328374034872e-30 1.8686584543290456e-31
1.8436070236018224e-31 1.815653418859922e-31 8.561872936471807e-30 8.572441695360749e-30 8.58375144706486e-30 1.1028542289588222e-29 1.1127133951897982e-29 1.1233935281915341e-29
1.6964532347741292e-30 1.7125757294161273e-30 1.732822600067154e-30 8.131757461891492e-31 8.22235880126076e-31 8.310651947388341e-31 2.451813743774393e-30 2.4527216663786698e-30
2.450818561171677e-30 3.9468312555751146e-30 3.941594016903692e-30 3.935132340165958e-30 3.2917331973250144e-30 3.3137481292087315e-30 3.336302419149403e-30 8.773697094191418e-30
8.778788756427508e-30 8.785832737585388e-30 3.008400418921788e-31 3.086747722868305e-31 3.172942528899255e-31 9.903595915438416e-30 9.88105321310154e-30 9.850603743762183e-30
1.8225298458135137e-21 7.325436757921151e-22 1.272351452410233e-24 6.662319200646443e-22 3.6949767514541954e-22 2.9306982342811255e-25 1.4940039588870792e-22 2.1160896483491427e-24
1.1432346874938403e-24 6.186520142457747e-22 5.3921646629734855e-22 4.675159519726936e-25 8.762424249763365e-22 8.311693270530205e-22 2.055142999636558e-24 1.674853348337298e-23
6.782932351570257e-23 1.7031404986709724e-25 2.2367735806617827e-22 2.348592098950919e-22 1.51576619681254e-24 1.5472233311452638e-21 6.335927154220711e-22 4.181214477472016e-24
1.2967501053824384e-21 7.072659890157417e-22 2.3100335925386193e-24 6.464248529890857e-23 1.404490473661615e-22 7.592972559564215e-25 1.1263171530490473e-21 4.844699986177054e-22
1.4289515751936305e-25 5.363596931660473e-22 8.496514510398488e-24 6.875859422727035e-25 9.188009719586962e-24 5.856679346010331e-24 1.504944349513008e-25 4.336415677742706e-22
7.979060588382773e-23 2.397320045387596e-24 2.1328174259114336e-22 5.454128222752004e-22 1.5925482397695513e-26 2.503963152363598e-22 5.171406870436523e-23 4.989096858099799e-26
2.218020478326353e-06 2.1995410423903283e-06 2.13704113773526e-06 7.830500095913629e-07 7.908821953280748e-07 7.871346613259056e-07 2.088156786840492e-07 2.142093280287393e-07
2.1676085647513733e-07 6.676077791261261e-07 6.740667320821331e-07 6.694254539193106e-07 4.698118916693353e-07 4.6908971703033977e-07 4.5934405102177464e-07 2.688125525187209e-08
2.6410911576253573e-08 2.607711160244372e-08 1.1742908631106425e-07 1.1703021606464917e-07 1.1583305454616642e-07 5.84047013287323e-07 5.749766493667759e-07 5.543942334387446e-07
6.785855867501012e-07 6.709435531391437e-07 6.497723892445333e-07 7.50391846873438e-08 7.800410485737001e-08 8.027430682888134e-08 1.4282572187086783e-06 1.415504606259869e-06
1.3747482012869017e-06 5.610684331555466e-07 5.657537256702058e-07 5.608984333235034e-07 7.752603577539265e-09 8.120753589084094e-09 8.58490347411178e-09 2.6693171808839695e-07
2.653017186470269e-07 2.61221208229209e-07 2.5088150621991934e-07 2.452449690087229e-07 2.340550178053387e-07 3.9107517265760566e-07 3.8837729056863207e-07 3.7982454772491965e-07
0.0 8.082634642510748e-29 1.8198750477332539e-28 0.0 6.861689069357471e-30 7.809826038713126e-29 0.0 7.095414245689838e-31
4.5714638082612236e-30 0.0 3.322699166025808e-30 5.654507007781341e-29 0.0 3.536120885100786e-29 1.0411895340001414e-28 0.0
00000000: 149e b55a b535 a93e 4a2e d902 7123 a93e
00000010: 183b 4b41 4482 a83e 8f3f adee 57a3 923e
00000020: d551 1f60 cad5 923e 3b74 845a e9c9 923e
00000030: c53c 57c3 e032 723e c4a6 91a6 dac3 723e
00000040: cebf 00ff 431a 733e ca2e 28fc 7f40 8f3e
00000050: a263 08e6 3a9d 8f3e d782 06c2 ad80 8f3e
00000060: eae0 e53c ffbd 843e 278b baac 8fd5 843e
00000070: 3237 ada6 c07e 843e 8366 1c4a 89c0 3d3e
00000080: c15c 789a 7736 3d3e 6abb b30b f3c9 3c3e
00000090: 6a0d 7129 1709 653e a9c7 a3cf c211 653e
000000a0: d4ea c038 04dc 643e fa4f 5971 d232 8a3e
000000b0: 9dc2 5f6a dcfd 893e 256f cbfc 192b 893e
000000c0: 3987 b2dc 036a 8e3e d189 1e4f ed4d 8e3e
000000d0: e436 a185 9c6d 8d3e 23cb f5d0 8863 5b3e
000000e0: 6e29 a3fc e1a9 5c3e 408c 051b 3b9a 5d3e
000000f0: 00d8 d0d0 6b60 a03e 9057 72bf 474c a03e
00000100: 2016 6839 4cc7 9f3e 7728 a017 d4d8 893e
00000110: f753 2a3f 3c28 8a3e b99d 444e f404 8a3e
00000120: 4f7c d2c4 4eb6 2e3e 3e4c e2a3 492d 303e
00000130: 8145 1c75 9eea 303e ffc7 9cf4 25cc 763e
00000140: 989a 02ff 75d2 763e b980 3ed2 fd6b 763e
00000150: d9bd 337e 13d8 763e 318c d005 0c75 763e
00000160: 12d0 6fbb ec8f 753e 8b1a 5b89 2473 823e
00000170: 6f64 c42f c861 823e ab9a f157 1dfa 813e
00000180: af84 42f5 16ac 0b3c 2b3f 213d f986 1f3c
00000190: 5a88 239b e558 1e3c 64b3 a66a cfad d13b
000001a0: a84a f7cf 5a67 fa3b 3699 4f6b 1e93 f93b
000001b0: e248 003f f5e8 b83b 4256 fa72 2c98 e43b
000001c0: d26f 7d1c e69e e43b a361 dd93 e72d d43b
000001d0: 8c48 2d72 240f fc3b 8991 08c0 7b48 fb3b
000001e0: d948 06c2 2acc e43b 3e1e 2b57 0c84 ff3b
000001f0: d863 ce98 26a1 fe3b eb40 1460 0a44 a23b
00000200: 3e0c 380e 2ef9 683b b8c7 834b 50c0 723b
00000210: 8290 6cdf 5277 eb3b 096d b11b 87a5 d83b
00000220: e7e7 844a 7c12 d83b 72d9 dddf 17f1 f83b
00000230: 1017 310a 2cb4 053c ba89 b1b0 e8de 043c
00000240: 3722 0559 1044 ff3b acc0 f8f5 1c59 063c
00000250: 9652 ed2a 4b8f 053c 230d 3996 0657 b53b
00000260: 9186 a320 e714 c53b 6a14 828e b393 c53b
00000270: c4f2 737d f0a9 f73b e7b6 18f0 80f0 123c
00000280: bb95 479d 4127 123c 2dfe 85a8 f1c1 df3b
00000290: d135 6478 0578 fa3b 6b86 2bb7 73c8 f93b
000002a0: 0939 84c7 9668 bd3b d1bb 427b 0834 713b
000002b0: a2c5 32f4 a2a0 693b 64e0 feb4 c52b 053c
000002c0: 21ca c55f ba5f ed3b 94f8 b8a0 02d7 ec3b
000002d0: ed05 0f75 cfe2 d23b 6618 69f7 1e97 f03b
000002e0: 4804 33a1 a385 ef3b cfbd 2ab3 822d e23b
000002f0: f24c 4ce8 5afb e83b d1dc 5ee6 b4d8 e73b
00000300: 5ed3 cd87 b4ac 4639 3caf 2719 459c 5139
00000310: 0963 db7d 4eb7 5a39 22ce faee c3ee ed39
00000320: c3bc f432 adfe ed39 0827 c907 5b09 ee39
00000330: 5893 1d68 b226 a739 d7d3 ddaf ed1e a739
00000340: 980c c12d 671b a739 f39e d68f efbd dc39
00000350: b506 5608 4db6 dc39 d4cf 22a2 f5a7 dc39
00000360: 25b0 8197 3aa9 c239 5873 1808 98bb c239
00000370: d5fb 8f8e dfd4 c239 b2d9 7181 1a52 8e39
00000380: 8aa4 5441 0bea 8d39 e55c 4de2 ed75 8d39
00000390: 9e2a 8326 f9b4 e539 7e73 cc2f d5bb e539
000003a0: fffb 6e57 2cc3 e539 cfa3 3fe5 eef5 eb39
000003b0: 8057 c63e ec35 ec39 2a23 f2a8 3d7b ec39
000003c0: 74c0 0c91 3e34 c139 6458 5ecd 195e c139
000003d0: 7808 e727 aa92 c139 3acd a2f7 3f7e b039
000003e0: 31e5 74f3 4aad b039 f905 881f 23db b039
000003f0: 188c fdbb 45dd c839 134d 0427 a1df c839
00000400: 81d3 7152 b0da c839 5504 5fa6 4703 d439
00000410: 83db 6047 7bfc d339 a4f6 b604 18f4 d339
00000420: 6b1c eafa e9b0 d039 dd5d 32b2 7dcd d039
00000430: 0af1 fca4 c4ea d039 6b7b bb79 743e e639
00000440: ec8d 1779 c241 e639 1025 eada 5446 e639
00000450: 0823 1406 3468 9839 467c 7d98 ec0a 9939
00000460: 7801 899d f1bd 9939 1849 641e cd1b e939
00000470: 78d4 e091 2b0d e939 89e2 b048 68f9 e839
00000480: f156 9f55 9b36 a13b a3d7 274b baac 8b3b
00000490: 7ed4 1415 619c f83a 3b3a ae56 662b 893b
000004a0: bf57 aedd 1feb 7b3b e918 e18c d8ac d63a
000004b0: 8799 0bdb a593 663b b502 0c28 2f77 043b
000004c0: b613 4723 061d f63a a374 9832 3c5f 873b
000004d0: cacf 934e fb5e 843b 7fc4 17c1 0d16 e23a
000004e0: 49de fd94 3f8d 903b 3e3f 2a94 9366 8f3b
000004f0: 6bd2 e6a0 49e0 033b 6cc8 5e88 6b3f 343b
00000500: ffc7 ab2a 0a80 543b 4c6d 0ba9 d55a ca3a
00000510: 32c6 35a1 8ce6 703b 1e84 647a d6be 713b
00000520: 83ba dfed b551 fd3a 6175 1ab6 e939 9d3b
00000530: 91a4 0095 bbef 873b 02f4 b0c2 1738 143b
00000540: c4c7 5be0 b27e 983b b597 bfc5 41b8 8a3b
00000550: 812f 2dbc 5d57 063b 085a 2855 7889 533b
00000560: f2f0 63fe 5b39 653b 187e 993e b75f ed3a
00000570: d609 c719 8946 953b ac28 459e 814d 823b
00000580: 996a be0e a91c c63a 2c76 7d47 5a43 843b
00000590: e0ac 0177 168b 243b ea20 0177 8599 ea3a
000005a0: cf65 2641 1a37 263b e5f0 a6c5 3752 1c3b
000005b0: ec8c e9e2 b249 c73a b423 d684 ec61 803b
000005c0: 1dcc c3c5 7f1d 583b 768c e418 7a2f 073b
000005d0: 3d6d 0309 781d 703b 19c1 c3bd e89a 843b
000005e0: 4996 e5a0 fcb6 933a 28e7 4d7f 5eeb 723b
000005f0: 6bdd dd51 5d42 4f3b 5760 dd1e 8ae1 ae3a
00000600: 8a86 3da7 299b c23e 5c29 d779 7a73 c23e
00000610: b6a3 3cca 42ed c13e 5d0f 6d2e 5946 aa3e
00000620: 218d 0557 a089 aa3e 0c02 ee6c 6f69 aa3e
00000630: fbf4 5a22 da06 8c3e 9edb f12c 2dc0 8c3e
00000640: 9297 39a8 d817 8d3e 86aa 2908 b566 a63e
00000650: b5b1 6d6b 309e a63e bd58 1a24 5276 a63e
00000660: 5766 108d 4e87 9f3e 0b8e b464 e67a 9f3e
00000670: a30e 4180 78d3 9e3e 18d6 8a2c 10dd 5c3e
00000680: 7221 22ae c65b 5c3e d8f5 6198 0500 5c3e
00000690: 085c 5a55 aa85 7f3e 3fb8 7555 416a 7f3e
000006a0: bb92 4aa5 fc17 7f3e 610b edf6 ec98 a33e
000006b0: e5b7 fa05 034b a33e d331 e4cf 359a a23e
000006c0: 4c0e 747c 01c5 a63e 42ee fc79 5c83 a63e
000006d0: 6279 4298 80cd a53e 1834 324c a724 743e
000006e0: 57ab 91b9 66f0 743e f26c 528a 688c 753e
000006f0: 3373 5f6b 51f6 b73e d0b0 14c6 8bbf b73e
00000700: 05b4 f0a1 7f10 b73e 2aa3 4f88 8ad3 a23e
00000710: f093 8399 c9fb a23e 9ede e9b2 14d2 a23e
00000720: 5de5 a9f4 09a6 403e 0dbf b376 6e70 413e
00000730: 5338 b2c0 996f 423e fb70 871c dae9 913e
00000740: 0254 4f4c d9cd 913e a4b5 0206 bf87 913e
00000750: 7e46 7b88 1cd6 903e f8b2 c2c7 4675 903e
00000760: ec74 7cb5 116a 8f3e 82b2 76cc 9e3e 9a3e
00000770: 2561 4563 4510 9a3e 4a68 e606 567d 993e
00000780: 0000 0000 0000 0000 e26d dc89 699d 193a
00000790: 029b 744c 4ad6 2c3a 0000 0000 0000 0000
000007a0: 7616 b3a6 7d65 e139 5fc3 8368 15c0 183a
000007b0: 0000 0000 0000 0000 b0f6 c2a6 4cc8 ac39
000007c0: 80fc 3d6b 192e d739 0000 0000 0000 0000
000007d0: f003 3230 1cd9 d039 9c27 af28 7beb 113a
000007e0: 0000 0000 0000 0000 810d 2826 af69 063a
000007f0: 4e93 8007 917f 203a 0000 0000 0000 0000

exp_avg f8 [8]
4.780691608094061e-05 6.481848313155811e-100 2.5e-323 2.5e-323 0.00012669973470540294 2.5e-323 -5.624408231385839e-05 3.397763913070239e-71
00000000: a8ed f320 8910 093f e792 7603 13af 562b
00000010: 0500 0000 0000 0000 0500 0000 0000 0000
00000020: 30e6 166f 569b 203f 0500 0000 0000 0000
00000030: 7c3e fbf3 f37c 0dbf 99fb 40e9 4204 4e31

exp_avg_sq f8 [8]
5.363470614610067e-07 2.1234855819808777e-19 7.845922833966431e-29 1.6764673531524478e-21 1.7120548130744304e-06 2.4908813242144645e-28 2.508216476088368e-06 1.1136490091263785e-14
00000000: b762 44a9 2fff a13e d9b3 f43c 4d56 0f3c
00000010: 6bd8 586b 5edd 183a 9c26 9f0f e6aa 9f3b
00000020: aa32 a32c 38b9 bc3e 3449 0887 1bbc 333a
00000030: e19b 1897 5a0a c53e adb0 59dc bf13 093d

exp_avg f8 [8, 16, 3]
-1.0862800606465526e-05 -1.2153048072686198e-05 -1.3496937840978224e-05 -7.739014165175268e-05 -7.777894576364917e-05 -7.811472765354539e-05 1.1226564589434465e-05 1.2088886559481125e-05
1.2917283680135089e-05 5.028457068729249e-05 5.058297808703975e-05 5.083472159863665e-05 3.8215026245218786e-05 3.868171102175434e-05 3.916827051778231e-05 -1.4292225343531062e-06
-4.87969586498082e-07 4.408306235181378e-07 -6.723964573430531e-05 -6.777832764939338e-05 -6.831227496529646e-05 7.399711100280884e-05 7.539549828475346e-05 7.680273109822288e-05
3.582966636947074e-05 3.6659624213648424e-05 3.75126180046919e-05 -2.7907108568830056e-05 -2.8886091430552265e-05 -2.983832554323743e-05 -8.996454125435949e-06 -7.802294206914255e-06
-6.564727766582338e-06 -3.0770656588024536e-05 -3.10974752145532e-05 -3.138064173288313e-05 3.2879848300431515e-05 3.3791831521185785e-05 3.4686588084557634e-05 -7.709116268542082e-05
-7.737655641950255e-05 -7.76651746392524e-05 -2.469316048801261e-05 -2.5867944549422806e-05 -2.7049306801907892e-05 4.753274479424641e-05 4.7323191096228794e-05 4.7082371735026375e-05
-2.9594937918099104e-05 -3.137844146365225e-05 -3.320942293175187e-05 -7.184742913343693e-05 -7.201309144208755e-05 -7.210303127697288e-05 8.932659338148615e-06 9.762862716614953e-06
1.0534936299217555e-05 4.4205388651033334e-05 4.429822208638061e-05 4.4325037869445406e-05 4.699457929842099e-05 4.76485986069143e-05 4.832092114322284e-05 6.047780515951812e-07
1.6333225554340951e-06 2.6299109829265565e-06 -7.224172168001581e-05 -7.283270023212366e-05 -7.340701591072571e-05 8.675934179507957e-05 8.842362285199436e-05 9.007442749760487e-05
4.7054788718745e-05 4.814797481136427e-05 4.9257826512826746e-05 -2.8377729282998936e-05 -2.9367066580397325e-05 -3.0304200709951283e-05 5.829419799879947e-06 7.442786855685876e-06
9.091195554466358e-06 -2.4578063461964885e-05 -2.4729144328940116e-05 -2.4817784347094147e-05 3.557122016962771e-05 3.6544156280860785e-05 3.7479505440945084e-05 -8.345610119503275e-05
-8.380853368797781e-05 -8.416178661255581e-05 -3.315635074493622e-05 -3.4550598947897816e-05 -3.5931404865124796e-05 4.2339128867726856e-05 4.193486543359525e-05 4.149436471822784e-05
-0.00010794774780921848 -0.00010454839578644611 -0.00010048667557241999 7.068886272527352e-05 6.840721224137593e-05 6.585373536472764e-05 -4.871089082741641e-05 -4.773428401770453e-05
-4.660402975218423e-05 -6.837476496126132e-05 -6.637240398716942e-05 -6.408244348228216e-05 5.156375440241405e-05 5.038816349208876e-05 4.8880758579309644e-05 -1.563478390952008e-05
-1.5717898976162604e-05 -1.5835358745403436e-05 -1.2302670806159452e-05 -1.2213306144868152e-05 -1.2001035769906337e-05 4.5338378620018535e-05 4.405641855097872e-05 4.236678320086056e-05
5.841154303657229e-05 5.673618390235456e-05 5.469550062330846e-05 3.38412532123426e-05 3.321416463330761e-05 3.255124496149779e-05 8.286629796390755e-05 8.005192491805708e-05
7.669655065761393e-05 6.520523580944713e-05 6.332925088187282e-05 6.118465502363855e-05 -1.3033587098244088e-05 -1.2762100009332322e-05 -1.2577691698537211e-05 -2.9101796537655937e-05
-2.8645063059438355e-05 -2.805695692452146e-05 -2.7071427456742364e-05 -2.6091175815990582e-05 -2.4818357950326706e-05 -4.2211139520423324e-05 -4.051551232745932e-05 -3.8639424967826846e-05
2.8771402782734536e-05 2.9295191745244363e-05 2.9667427701780824e-05 -0.00011083261034529668 -0.00011286019477766337 -0.00011485818354104004 -3.0051025595534553e-05 -2.8265718136451816e-05
-2.645359662337258e-05 6.639583447366186e-05 6.81578602336471e-05 6.989028156636823e-05 5.359576860689781e-05 5.33477712194904e-05 5.315665775928586e-05 -5.179763924918538e-05
-5.0569766983099024e-05 -4.928688562970339e-05 -9.67690485559799e-05 -9.744965544648152e-05 -9.816239794130109e-05 7.121362838589888e-05 7.222675880708396e-05 7.335104660955307e-05
3.237122137618477e-05 3.2360975187840577e-05 3.2435737915660823e-05 3.409005716837541e-06 1.6675411867494563e-06 -1.1609130636133233e-07 -6.427103506645493e-05 -6.454406289679149e-05
-6.468258260303145e-05 -2.9822759629343592e-05 -3.1454006490032836e-05 -3.3062246538952396e-05 1.2270642010727515e-05 1.3587873721327236e-05 1.4954882866322705e-05 -0.00013074888913869646
-0.0001308996357568135 -0.00013107072569786994 1.0612391364910404e-05 9.748201848342454e-06 8.789395080673024e-06 9.109381329324669e-05 9.184701881483691e-05 9.255283764950253e-05
2.5e-323 2.5e-323 2.5e-323 -2.5e-323 -2.5e-323 -2.5e-323 2.5e-323 2.5e-323
2.5e-323 2.5e-323 2.5e-323 2.5e-323 -2.5e-323 -2.5e-323 -2.5e-323 -2.5e-323
2.5e-323 -2.5e-323 2.5e-323 2.5e-323 2.5e-323 -2.5e-323 -2.5e-323 -2.5e-323
-2.5e-323 -2.5e-323 -2.5e-323 -2.5e-323 -2.5e-323 -2.5e-323 -2.5e-323 -2.5e-323
-2.5e-323 -2.5e-323 -2.5e-323 -2.5e-323 2.5e-323 2.5e-323 -2.5e-323 2.5e-323
2.5e-323 2.5e-323 2.5e-323 2.5e-323 2.5e-323 2.5e-323 2.5e-323 2.5e-323
-3.339034454304814e-05 -3.458718014688105e-05 -3.504036297632827e-05 4.0798759632096305e-05 4.188852814266413e-05 4.2716102507911965e-05 1.2267590355477079e-05 1.163892394375675e-05
1.1077100313242068e-05 -2.6688577890800537e-05 -2.7718220402162868e-05 -2.8452401853305712e-05 -7.787825886759662e-06 -7.1907071625635556e-06 -6.97330917700687e-06 2.390477635292323e-05
00000000: cff4 76f2 ebc7 e6be 6d21 6735 9e7c e9be
00000010: 688b 0e03 1d4e ecbe ee3e 7c82 9049 14bf
00000020: 309c 0d1d a863 14bf e829 6ccd 307a 14bf
00000030: 7741 cb49 378b e73e f034 d9ea 2b5a e93e
00000040: a2fd 60f3 e916 eb3e 4ee3 58b1 145d 0a3f
00000050: 850a 98e4 2185 0a3f 2d8d f0bb eba6 0a3f
00000060: e5f5 b24d 2209 043f 23d0 6778 c547 043f
00000070: cb50 fe86 1389 043f 4f46 92cb 76fa b7be
00000080: fd77 fd77 a05f a0be 94d3 f395 6995 9d3e
00000090: a962 5451 60a0 11bf 9e66 72cd 86c4 11bf
000000a0: 8fa2 93f2 5be8 11bf 8faf e0af dc65 133f
000000b0: 3a28 2fcc b4c3 133f 8dbf 8cdf 2422 143f
000000c0: c62d 57f6 f9c8 023f 9210 be18 5f38 033f
000000d0: a4cf 79bd dbaa 033f 2e92 e7e5 4143 fdbe
000000e0: 44d3 8a16 0d4a febe 36e2 351e aa49 ffbe
000000f0: 2ef0 6d3d efdd e2be bdc9 8526 d35c e0be
00000100: d279 cda0 d288 dbbe ebe2 b3b5 f721 00bf
00000110: 6736 be1c d54d 00bf 046e c7a3 d673 00bf
00000120: 31e9 34fc 0e3d 013f 4c7d 737d 76b7 013f
00000130: 0f2f 6a17 8e2f 023f a6e7 1517 8035 14bf
00000140: 5e85 001e a748 14bf 1a40 5b8a 055c 14bf
00000150: d869 5411 85e4 f9be 079f 199d df1f fbbe
00000160: deb3 a135 fe5c fcbe eca1 cfac bceb 083f
00000170: b97a fd76 9ccf 083f bfca 7cf9 49af 083f
00000180: 0c01 d4a5 5408 ffbe ea95 010a 8b73 00bf
00000190: 3f50 5215 4b69 01bf fb37 086f 99d5 12bf
000001a0: 8218 927d b7e0 12bf 88d0 25a5 c0e6 12bf
000001b0: 686d e559 afbb e23e 9a3b 79a2 6579 e43e
000001c0: 620e af9e e617 e63e e547 a896 252d 073f
000001d0: 19b3 3052 9b39 073f 3c02 50b4 343d 073f
000001e0: a866 0c73 81a3 083f ac69 b961 49fb 083f
000001f0: a468 4b35 8655 093f 09ca f9ff 004b a43e
00000200: 0976 4024 1167 bb3e 0fce 55da b00f c63e
00000210: 3aae fd53 0ff0 12bf de71 2643 b817 13bf
00000220: 297b 37ee 423e 13bf b6ce 7c24 52be 163f
00000230: 6ebf fb45 022e 173f bd74 98e1 ca9c 173f
00000240: 63de b53a 96ab 083f 558d 45d1 4f3e 093f
00000250: a01f 1408 46d3 093f ea88 10b5 96c1 fdbe
00000260: 2371 dc72 29cb febe ea18 d1d0 b8c6 ffbe
00000270: 221a 9ab6 4a73 d83e b275 37ac a137 df3e
00000280: dde4 1e67 cc10 e33e 20cb 08a9 9fc5 f9be
00000290: 8401 c1db 2dee f9be 0abc 7127 f905 fabe
000002a0: 4d86 86d1 49a6 023f e386 10a6 df28 033f
000002b0: 75ef 4800 6aa6 033f 9cef b0e6 a4e0 15bf
000002c0: 40e9 2fa5 4bf8 15bf 0fc9 fa7b 0010 16bf
000002d0: 1cee 6d89 2b62 01bf 0c97 518a 4d1d 02bf
000002e0: bbbc 9cab a1d6 02bf 6bf1 ff63 a932 063f
000002f0: 2649 3a01 67fc 053f 417e f583 47c1 053f
00000300: 2945 a22f 404c 1cbf 6681 54c3 1f68 1bbf
00000310: a3e9 e9f0 8b57 1abf 4d32 156a d987 123f
00000320: c4ed 21f5 baee 113f bb62 108f 5e43 113f
00000330: 659e e976 dd89 09bf 3d77 9182 c906 09bf
00000340: 41f3 e844 166f 08bf 3b45 7c84 8dec 11bf
00000350: 3713 ca37 2d66 11bf fff2 fafe 7fcc 10bf
00000360: 9144 4c1c c508 0b3f 636d 4b1d fc6a 0a3f
00000370: dcae 7513 aaa0 093f d0ee 4c2b ee64 f0be
00000380: cf17 04cb 3d7b f0be b913 2191 c59a f0be
00000390: 2c90 5433 f2cc e9be e1fa d503 f89c e9be
000003a0: 02d2 facb 012b e9be 5659 d1d3 36c5 073f
000003b0: b2bb cc03 2719 073f 1f24 1696 5f36 063f
000003c0: 43d2 1e56 dd9f 0e3f b288 546f 00bf 0d3f
000003d0: c3fc 6017 1bad 0c3f a96d 3e9b 18be 013f
000003e0: 44fe c401 ee69 013f 0a86 ab42 f410 013f
000003f0: e6f4 a528 10b9 153f 2ed0 1799 31fc 143f
00000400: e18e 08b5 041b 143f 0382 db6b d917 113f
00000410: 5350 e43e f499 103f 0f50 8f5e 080a 103f
00000420: ede7 1d92 5a55 ebbe f4fc 5cab 99c3 eabe
00000430: 246d bdc8 9860 eabe 9dcc ea3a f483 febe
00000440: ae7d 98be 5909 febe c76c 0e66 7b6b fdbe
00000450: 8492 4e54 ee62 fcbe a48d 12f3 cb5b fbbe
00000460: f809 6192 2006 fabe 0088 cbb5 7b21 06bf
00000470: d455 4667 e63d 05bf 2675 5788 1842 04bf
00000480: ed3f 83be 432b fe3e 37a1 633f deb7 fe3e
00000490: 00c8 961b ca1b ff3e f6e4 3ebf d90d 1dbf
000004a0: 5e69 e261 eb95 1dbf 51f8 6491 001c 1ebf
000004b0: 9126 1ac1 c282 ffbe 12af 225c 85a3 fdbe
000004c0: 52a1 5751 15bd fbbe 59a2 28c0 bf67 113f
000004d0: e6a7 671f ffdd 113f 5cc7 00e5 4152 123f
000004e0: 8554 4396 8019 0c3f 5c92 2c76 37f8 0b3f
000004f0: 8a7d 66da 90de 0b3f bda6 2a55 2928 0bbf
00000500: 17a6 7ef6 5b83 0abf 9c17 c67e 2cd7 09bf
00000510: 586d 6298 0f5e 19bf 130a 2555 bc8b 19bf
00000520: 3a8f c927 91bb 19bf da9b ddd1 10ab 123f
00000530: c570 9444 0eef 123f 3981 a062 813a 133f
00000540: 23a8 77b2 caf8 003f 00a7 0aa4 6af7 003f
00000550: 843a f377 7301 013f 726d 60b6 c898 cc3e
00000560: 2051 b4ec 08fa bb3e b7e1 11dc bb29 7fbe
00000570: 2900 8af9 27d9 10bf f4bd a28e 7aeb 10bf
00000580: ec17 bf4e c6f4 10bf 26df c16f 7c45 ffbe
00000590: 18e9 016f af7d 00bf c26d 1424 8a55 01bf
000005a0: e837 4632 c0bb e93e de40 e824 ef7e ec3e
000005b0: dc47 5073 d75c ef3e 7884 da67 3423 21bf
000005c0: 352a 2c4f 4328 21bf 7183 eef5 002e 21bf
000005d0: 6d0a 89f6 7b41 e63e 7574 07a9 8671 e43e
000005e0: 2043 f442 c56e e23e 4bce bccb 33e1 173f
000005f0: ca65 a7c4 bf13 183f 6c98 b7a4 1d43 183f
00000600: 0500 0000 0000 0000 0500 0000 0000 0000
00000610: 0500 0000 0000 0000 0500 0000 0000 0080
00000620: 0500 0000 0000 0080 0500 0000 0000 0080
00000630: 0500 0000 0000 0000 0500 0000 0000 0000
00000640: 0500 0000 0000 0000 0500 0000 0000 0000
00000650: 0500 0000 0000 0000 0500 0000 0000 0000
00000660: 0500 0000 0000 0080 0500 0000 0000 0080
00000670: 0500 0000 0000 0080 0500 0000 0000 0080
00000680: 0500 0000 0000 0000 0500 0000 0000 0080
00000690: 0500 0000 0000 0000 0500 0000 0000 0000
000006a0: 0500 0000 0000 0000 0500 0000 0000 0080
000006b0: 0500 0000 0000 0080 0500 0000 0000 0080
000006c0: 0500 0000 0000 0080 0500 0000 0000 0080
000006d0: 0500 0000 0000 0080 0500 0000 0000 0080
000006e0: 0500 0000 0000 0080 0500 0000 0000 0080
000006f0: 0500 0000 0000 0080 0500 0000 0000 0080
00000700: 0500 0000 0000 0080 0500 0000 0000 0080
00000710: 0500 0000 0000 0080 0500 0000 0000 0080
00000720: 0500 0000 0000 0000 0500 0000 0000 0000
00000730: 0500 0000 0000 0080 0500 0000 0000 0000
00000740: 0500 0000 0000 0000 0500 0000 0000 0000
00000750: 0500 0000 0000 0000 0500 0000 0000 0000
00000760: 0500 0000 0000 0000 0500 0000 0000 0000
00000770: 0500 0000 0000 0000 0500 0000 0000 0000
00000780: 0bec a480 9381 01bf 15a5 f275 3622 02bf
00000790: 398f 45b4 095f 02bf c824 eab4 ea63 053f
000007a0: 4a33 1bde 2ef6 053f 16ad 341b 4265 063f
000007b0: 2852 b3c7 1cba e93e 6131 c086 9968 e83e
000007c0: 0b20 1613 f93a e73e c90e 841b 29fc fbbe
000007d0: d18d 229a 8d10 fdbe dd57 d02a a2d5 fdbe
000007e0: 3446 c3a3 0e55 e0be 0668 c788 f628 debe
000007f0: fa6d 8ca1 883f ddbe 6d66 f3b8 e310 f93e
